program(1.0)
[buildInfo = dict<tensor<string, []>, tensor<string, []>>({{"coremlc-component-MIL", "3510.2.1"}, {"coremlc-version", "3500.32.1"}, {"coremltools-component-torch", "2.3.1"}, {"coremltools-source-dialect", "TorchScript"}, {"coremltools-version", "8.2"}})]
{
    func main<ios16>(tensor<fp32, [1, 3, 392, 518]> colorImage) {
            tensor<string, []> colorImage_to_fp16_dtype_0 = const()[name = tensor<string, []>("colorImage_to_fp16_dtype_0"), val = tensor<string, []>("fp16")];
            tensor<fp16, []> _inversed_tensor_1_y_0_to_fp16 = const()[name = tensor<string, []>("_inversed_tensor_1_y_0_to_fp16"), val = tensor<fp16, []>(0x1.01p-8)];
            tensor<fp16, [1, 3, 392, 518]> colorImage_to_fp16 = cast(dtype = colorImage_to_fp16_dtype_0, x = colorImage)[name = tensor<string, []>("cast_37")];
            tensor<fp16, [1, 3, 392, 518]> _inversed_tensor_1_cast_fp16 = mul(x = colorImage_to_fp16, y = _inversed_tensor_1_y_0_to_fp16)[name = tensor<string, []>("_inversed_tensor_1_cast_fp16")];
            tensor<int32, []> var_23 = const()[name = tensor<string, []>("op_23"), val = tensor<int32, []>(1)];
            tensor<int32, []> var_26 = const()[name = tensor<string, []>("op_26"), val = tensor<int32, []>(-1)];
            tensor<string, []> x_3_pad_type_0 = const()[name = tensor<string, []>("x_3_pad_type_0"), val = tensor<string, []>("valid")];
            tensor<int32, [2]> x_3_strides_0 = const()[name = tensor<string, []>("x_3_strides_0"), val = tensor<int32, [2]>([14, 14])];
            tensor<int32, [4]> x_3_pad_0 = const()[name = tensor<string, []>("x_3_pad_0"), val = tensor<int32, [4]>([0, 0, 0, 0])];
            tensor<int32, [2]> x_3_dilations_0 = const()[name = tensor<string, []>("x_3_dilations_0"), val = tensor<int32, [2]>([1, 1])];
            tensor<int32, []> x_3_groups_0 = const()[name = tensor<string, []>("x_3_groups_0"), val = tensor<int32, []>(1)];
            tensor<fp16, [384, 3, 14, 14]> model_pretrained_patch_embed_proj_weight_to_fp16 = const()[name = tensor<string, []>("model_pretrained_patch_embed_proj_weight_to_fp16"), val = tensor<fp16, [384, 3, 14, 14]>(BLOBFILE(path = tensor<string, []>("@model_path/weights/weight.bin"), offset = tensor<uint64, []>(64)))];
            tensor<fp16, [384]> model_pretrained_patch_embed_proj_bias_to_fp16 = const()[name = tensor<string, []>("model_pretrained_patch_embed_proj_bias_to_fp16"), val = tensor<fp16, [384]>(BLOBFILE(path = tensor<string, []>("@model_path/weights/weight.bin"), offset = tensor<uint64, []>(451712)))];
            tensor<fp16, [1, 384, 28, 37]> x_3_cast_fp16 = conv(bias = model_pretrained_patch_embed_proj_bias_to_fp16, dilations = x_3_dilations_0, groups = x_3_groups_0, pad = x_3_pad_0, pad_type = x_3_pad_type_0, strides = x_3_strides_0, weight = model_pretrained_patch_embed_proj_weight_to_fp16, x = _inversed_tensor_1_cast_fp16)[name = tensor<string, []>("x_3_cast_fp16")];
            tensor<int32, [3]> concat_0 = const()[name = tensor<string, []>("concat_0"), val = tensor<int32, [3]>([1, 384, 1036])];
            tensor<fp16, [1, 384, 1036]> var_97_cast_fp16 = reshape(shape = concat_0, x = x_3_cast_fp16)[name = tensor<string, []>("op_97_cast_fp16")];
            tensor<int32, [3]> x_5_perm_0 = const()[name = tensor<string, []>("x_5_perm_0"), val = tensor<int32, [3]>([0, 2, 1])];
            tensor<bool, []> x_7_interleave_0 = const()[name = tensor<string, []>("x_7_interleave_0"), val = tensor<bool, []>(false)];
            tensor<fp16, [1, 1, 384]> model_pretrained_cls_token_to_fp16 = const()[name = tensor<string, []>("model_pretrained_cls_token_to_fp16"), val = tensor<fp16, [1, 1, 384]>(BLOBFILE(path = tensor<string, []>("@model_path/weights/weight.bin"), offset = tensor<uint64, []>(452544)))];
            tensor<fp16, [1, 1036, 384]> x_5_cast_fp16 = transpose(perm = x_5_perm_0, x = var_97_cast_fp16)[name = tensor<string, []>("transpose_29")];
            tensor<fp16, [1, 1037, 384]> x_7_cast_fp16 = concat(axis = var_23, interleave = x_7_interleave_0, values = (model_pretrained_cls_token_to_fp16, x_5_cast_fp16))[name = tensor<string, []>("x_7_cast_fp16")];
            tensor<fp32, []> patch_pos_embed_3_scale_factor_height_0 = const()[name = tensor<string, []>("patch_pos_embed_3_scale_factor_height_0"), val = tensor<fp32, []>(0x1.84d7ep-1)];
            tensor<fp32, []> patch_pos_embed_3_scale_factor_width_0 = const()[name = tensor<string, []>("patch_pos_embed_3_scale_factor_width_0"), val = tensor<fp32, []>(0x1.00b12p+0)];
            tensor<fp16, [1, 384, 37, 37]> input_1_to_fp16 = const()[name = tensor<string, []>("input_1_to_fp16"), val = tensor<fp16, [1, 384, 37, 37]>(BLOBFILE(path = tensor<string, []>("@model_path/weights/weight.bin"), offset = tensor<uint64, []>(453376)))];
            tensor<fp16, [1, 384, 28, 37]> patch_pos_embed_3_cast_fp16 = upsample_nearest_neighbor(scale_factor_height = patch_pos_embed_3_scale_factor_height_0, scale_factor_width = patch_pos_embed_3_scale_factor_width_0, x = input_1_to_fp16)[name = tensor<string, []>("patch_pos_embed_3_cast_fp16")];
            tensor<int32, [4]> var_116 = const()[name = tensor<string, []>("op_116"), val = tensor<int32, [4]>([0, 2, 3, 1])];
            tensor<int32, [3]> var_118 = const()[name = tensor<string, []>("op_118"), val = tensor<int32, [3]>([1, -1, 384])];
            tensor<fp16, [1, 28, 37, 384]> var_117_cast_fp16 = transpose(perm = var_116, x = patch_pos_embed_3_cast_fp16)[name = tensor<string, []>("transpose_28")];
            tensor<fp16, [1, 1036, 384]> patch_pos_embed_cast_fp16 = reshape(shape = var_118, x = var_117_cast_fp16)[name = tensor<string, []>("patch_pos_embed_cast_fp16")];
            tensor<bool, []> var_122_interleave_0 = const()[name = tensor<string, []>("op_122_interleave_0"), val = tensor<bool, []>(false)];
            tensor<fp16, [1, 1037, 384]> var_122_cast_fp16 = concat(axis = var_23, interleave = var_122_interleave_0, values = (model_pretrained_cls_token_to_fp16, patch_pos_embed_cast_fp16))[name = tensor<string, []>("op_122_cast_fp16")];
            tensor<fp16, [1, 1037, 384]> input_3_cast_fp16 = add(x = x_7_cast_fp16, y = var_122_cast_fp16)[name = tensor<string, []>("input_3_cast_fp16")];
            tensor<int32, [1]> x_9_axes_0 = const()[name = tensor<string, []>("x_9_axes_0"), val = tensor<int32, [1]>([-1])];
            tensor<fp16, [384]> model_pretrained_blocks_0_norm1_weight_to_fp16 = const()[name = tensor<string, []>("model_pretrained_blocks_0_norm1_weight_to_fp16"), val = tensor<fp16, [384]>(BLOBFILE(path = tensor<string, []>("@model_path/weights/weight.bin"), offset = tensor<uint64, []>(1504832)))];
            tensor<fp16, [384]> model_pretrained_blocks_0_norm1_bias_to_fp16 = const()[name = tensor<string, []>("model_pretrained_blocks_0_norm1_bias_to_fp16"), val = tensor<fp16, [384]>(BLOBFILE(path = tensor<string, []>("@model_path/weights/weight.bin"), offset = tensor<uint64, []>(1505664)))];
            tensor<fp16, []> var_8_to_fp16 = const()[name = tensor<string, []>("op_8_to_fp16"), val = tensor<fp16, []>(0x1.1p-20)];
            tensor<fp16, [1, 1037, 384]> x_9_cast_fp16 = layer_norm(axes = x_9_axes_0, beta = model_pretrained_blocks_0_norm1_bias_to_fp16, epsilon = var_8_to_fp16, gamma = model_pretrained_blocks_0_norm1_weight_to_fp16, x = input_3_cast_fp16)[name = tensor<string, []>("x_9_cast_fp16")];
            tensor<fp16, [1152, 384]> model_pretrained_blocks_0_attn_qkv_weight_to_fp16 = const()[name = tensor<string, []>("model_pretrained_blocks_0_attn_qkv_weight_to_fp16"), val = tensor<fp16, [1152, 384]>(BLOBFILE(path = tensor<string, []>("@model_path/weights/weight.bin"), offset = tensor<uint64, []>(1506496)))];
            tensor<fp16, [1152]> model_pretrained_blocks_0_attn_qkv_bias_to_fp16 = const()[name = tensor<string, []>("model_pretrained_blocks_0_attn_qkv_bias_to_fp16"), val = tensor<fp16, [1152]>(BLOBFILE(path = tensor<string, []>("@model_path/weights/weight.bin"), offset = tensor<uint64, []>(2391296)))];
            tensor<fp16, [1, 1037, 1152]> linear_0_cast_fp16 = linear(bias = model_pretrained_blocks_0_attn_qkv_bias_to_fp16, weight = model_pretrained_blocks_0_attn_qkv_weight_to_fp16, x = x_9_cast_fp16)[name = tensor<string, []>("linear_0_cast_fp16")];
            tensor<int32, [5]> var_146 = const()[name = tensor<string, []>("op_146"), val = tensor<int32, [5]>([1, 1037, 3, 6, 64])];
            tensor<fp16, [1, 1037, 3, 6, 64]> var_147_cast_fp16 = reshape(shape = var_146, x = linear_0_cast_fp16)[name = tensor<string, []>("op_147_cast_fp16")];
            tensor<int32, [5]> var_148 = const()[name = tensor<string, []>("op_148"), val = tensor<int32, [5]>([2, 0, 3, 1, 4])];
            tensor<int32, [5]> var_150_begin_0 = const()[name = tensor<string, []>("op_150_begin_0"), val = tensor<int32, [5]>([0, 0, 0, 0, 0])];
            tensor<int32, [5]> var_150_end_0 = const()[name = tensor<string, []>("op_150_end_0"), val = tensor<int32, [5]>([1, 1, 6, 1037, 64])];
            tensor<bool, [5]> var_150_end_mask_0 = const()[name = tensor<string, []>("op_150_end_mask_0"), val = tensor<bool, [5]>([false, true, true, true, true])];
            tensor<bool, [5]> var_150_squeeze_mask_0 = const()[name = tensor<string, []>("op_150_squeeze_mask_0"), val = tensor<bool, [5]>([true, false, false, false, false])];
            tensor<fp16, [3, 1, 6, 1037, 64]> qkv_1_cast_fp16 = transpose(perm = var_148, x = var_147_cast_fp16)[name = tensor<string, []>("transpose_27")];
            tensor<fp16, [1, 6, 1037, 64]> var_150_cast_fp16 = slice_by_index(begin = var_150_begin_0, end = var_150_end_0, end_mask = var_150_end_mask_0, squeeze_mask = var_150_squeeze_mask_0, x = qkv_1_cast_fp16)[name = tensor<string, []>("op_150_cast_fp16")];
            tensor<fp16, []> var_151_to_fp16 = const()[name = tensor<string, []>("op_151_to_fp16"), val = tensor<fp16, []>(0x1p-3)];
            tensor<fp16, [1, 6, 1037, 64]> q_1_cast_fp16 = mul(x = var_150_cast_fp16, y = var_151_to_fp16)[name = tensor<string, []>("q_1_cast_fp16")];
            tensor<int32, [5]> k_1_begin_0 = const()[name = tensor<string, []>("k_1_begin_0"), val = tensor<int32, [5]>([1, 0, 0, 0, 0])];
            tensor<int32, [5]> k_1_end_0 = const()[name = tensor<string, []>("k_1_end_0"), val = tensor<int32, [5]>([2, 1, 6, 1037, 64])];
            tensor<bool, [5]> k_1_end_mask_0 = const()[name = tensor<string, []>("k_1_end_mask_0"), val = tensor<bool, [5]>([false, true, true, true, true])];
            tensor<bool, [5]> k_1_squeeze_mask_0 = const()[name = tensor<string, []>("k_1_squeeze_mask_0"), val = tensor<bool, [5]>([true, false, false, false, false])];
            tensor<fp16, [1, 6, 1037, 64]> k_1_cast_fp16 = slice_by_index(begin = k_1_begin_0, end = k_1_end_0, end_mask = k_1_end_mask_0, squeeze_mask = k_1_squeeze_mask_0, x = qkv_1_cast_fp16)[name = tensor<string, []>("k_1_cast_fp16")];
            tensor<int32, [5]> v_1_begin_0 = const()[name = tensor<string, []>("v_1_begin_0"), val = tensor<int32, [5]>([2, 0, 0, 0, 0])];
            tensor<int32, [5]> v_1_end_0 = const()[name = tensor<string, []>("v_1_end_0"), val = tensor<int32, [5]>([3, 1, 6, 1037, 64])];
            tensor<bool, [5]> v_1_end_mask_0 = const()[name = tensor<string, []>("v_1_end_mask_0"), val = tensor<bool, [5]>([false, true, true, true, true])];
            tensor<bool, [5]> v_1_squeeze_mask_0 = const()[name = tensor<string, []>("v_1_squeeze_mask_0"), val = tensor<bool, [5]>([true, false, false, false, false])];
            tensor<fp16, [1, 6, 1037, 64]> v_1_cast_fp16 = slice_by_index(begin = v_1_begin_0, end = v_1_end_0, end_mask = v_1_end_mask_0, squeeze_mask = v_1_squeeze_mask_0, x = qkv_1_cast_fp16)[name = tensor<string, []>("v_1_cast_fp16")];
            tensor<bool, []> attn_1_transpose_x_1 = const()[name = tensor<string, []>("attn_1_transpose_x_1"), val = tensor<bool, []>(false)];
            tensor<bool, []> attn_1_transpose_y_1 = const()[name = tensor<string, []>("attn_1_transpose_y_1"), val = tensor<bool, []>(true)];
            tensor<fp16, [1, 6, 1037, 1037]> attn_1_cast_fp16 = matmul(transpose_x = attn_1_transpose_x_1, transpose_y = attn_1_transpose_y_1, x = q_1_cast_fp16, y = k_1_cast_fp16)[name = tensor<string, []>("attn_1_cast_fp16")];
            tensor<fp16, [1, 6, 1037, 1037]> input_5_cast_fp16 = softmax(axis = var_26, x = attn_1_cast_fp16)[name = tensor<string, []>("input_5_cast_fp16")];
            tensor<bool, []> var_159_transpose_x_0 = const()[name = tensor<string, []>("op_159_transpose_x_0"), val = tensor<bool, []>(false)];
            tensor<bool, []> var_159_transpose_y_0 = const()[name = tensor<string, []>("op_159_transpose_y_0"), val = tensor<bool, []>(false)];
            tensor<fp16, [1, 6, 1037, 64]> var_159_cast_fp16 = matmul(transpose_x = var_159_transpose_x_0, transpose_y = var_159_transpose_y_0, x = input_5_cast_fp16, y = v_1_cast_fp16)[name = tensor<string, []>("op_159_cast_fp16")];
            tensor<int32, [4]> var_160_perm_0 = const()[name = tensor<string, []>("op_160_perm_0"), val = tensor<int32, [4]>([0, 2, 1, 3])];
            tensor<int32, [3]> var_161 = const()[name = tensor<string, []>("op_161"), val = tensor<int32, [3]>([1, 1037, 384])];
            tensor<fp16, [1, 1037, 6, 64]> var_160_cast_fp16 = transpose(perm = var_160_perm_0, x = var_159_cast_fp16)[name = tensor<string, []>("transpose_26")];
            tensor<fp16, [1, 1037, 384]> input_7_cast_fp16 = reshape(shape = var_161, x = var_160_cast_fp16)[name = tensor<string, []>("input_7_cast_fp16")];
            tensor<fp16, [384, 384]> model_pretrained_blocks_0_attn_proj_weight_to_fp16 = const()[name = tensor<string, []>("model_pretrained_blocks_0_attn_proj_weight_to_fp16"), val = tensor<fp16, [384, 384]>(BLOBFILE(path = tensor<string, []>("@model_path/weights/weight.bin"), offset = tensor<uint64, []>(2393664)))];
            tensor<fp16, [384]> model_pretrained_blocks_0_attn_proj_bias_to_fp16 = const()[name = tensor<string, []>("model_pretrained_blocks_0_attn_proj_bias_to_fp16"), val = tensor<fp16, [384]>(BLOBFILE(path = tensor<string, []>("@model_path/weights/weight.bin"), offset = tensor<uint64, []>(2688640)))];
            tensor<fp16, [1, 1037, 384]> linear_1_cast_fp16 = linear(bias = model_pretrained_blocks_0_attn_proj_bias_to_fp16, weight = model_pretrained_blocks_0_attn_proj_weight_to_fp16, x = input_7_cast_fp16)[name = tensor<string, []>("linear_1_cast_fp16")];
            tensor<fp16, [384]> model_pretrained_blocks_0_ls1_gamma_to_fp16 = const()[name = tensor<string, []>("model_pretrained_blocks_0_ls1_gamma_to_fp16"), val = tensor<fp16, [384]>(BLOBFILE(path = tensor<string, []>("@model_path/weights/weight.bin"), offset = tensor<uint64, []>(2689472)))];
            tensor<fp16, [1, 1037, 384]> var_168_cast_fp16 = mul(x = linear_1_cast_fp16, y = model_pretrained_blocks_0_ls1_gamma_to_fp16)[name = tensor<string, []>("op_168_cast_fp16")];
            tensor<fp16, [1, 1037, 384]> input_11_cast_fp16 = add(x = input_3_cast_fp16, y = var_168_cast_fp16)[name = tensor<string, []>("input_11_cast_fp16")];
            tensor<int32, [1]> input_13_axes_0 = const()[name = tensor<string, []>("input_13_axes_0"), val = tensor<int32, [1]>([-1])];
            tensor<fp16, [384]> model_pretrained_blocks_0_norm2_weight_to_fp16 = const()[name = tensor<string, []>("model_pretrained_blocks_0_norm2_weight_to_fp16"), val = tensor<fp16, [384]>(BLOBFILE(path = tensor<string, []>("@model_path/weights/weight.bin"), offset = tensor<uint64, []>(2690304)))];
            tensor<fp16, [384]> model_pretrained_blocks_0_norm2_bias_to_fp16 = const()[name = tensor<string, []>("model_pretrained_blocks_0_norm2_bias_to_fp16"), val = tensor<fp16, [384]>(BLOBFILE(path = tensor<string, []>("@model_path/weights/weight.bin"), offset = tensor<uint64, []>(2691136)))];
            tensor<fp16, [1, 1037, 384]> input_13_cast_fp16 = layer_norm(axes = input_13_axes_0, beta = model_pretrained_blocks_0_norm2_bias_to_fp16, epsilon = var_8_to_fp16, gamma = model_pretrained_blocks_0_norm2_weight_to_fp16, x = input_11_cast_fp16)[name = tensor<string, []>("input_13_cast_fp16")];
            tensor<fp16, [1536, 384]> model_pretrained_blocks_0_mlp_fc1_weight_to_fp16 = const()[name = tensor<string, []>("model_pretrained_blocks_0_mlp_fc1_weight_to_fp16"), val = tensor<fp16, [1536, 384]>(BLOBFILE(path = tensor<string, []>("@model_path/weights/weight.bin"), offset = tensor<uint64, []>(2691968)))];
            tensor<fp16, [1536]> model_pretrained_blocks_0_mlp_fc1_bias_to_fp16 = const()[name = tensor<string, []>("model_pretrained_blocks_0_mlp_fc1_bias_to_fp16"), val = tensor<fp16, [1536]>(BLOBFILE(path = tensor<string, []>("@model_path/weights/weight.bin"), offset = tensor<uint64, []>(3871680)))];
            tensor<fp16, [1, 1037, 1536]> linear_2_cast_fp16 = linear(bias = model_pretrained_blocks_0_mlp_fc1_bias_to_fp16, weight = model_pretrained_blocks_0_mlp_fc1_weight_to_fp16, x = input_13_cast_fp16)[name = tensor<string, []>("linear_2_cast_fp16")];
            tensor<string, []> input_17_mode_0 = const()[name = tensor<string, []>("input_17_mode_0"), val = tensor<string, []>("EXACT")];
            tensor<fp16, [1, 1037, 1536]> input_17_cast_fp16 = gelu(mode = input_17_mode_0, x = linear_2_cast_fp16)[name = tensor<string, []>("input_17_cast_fp16")];
            tensor<fp16, [384, 1536]> model_pretrained_blocks_0_mlp_fc2_weight_to_fp16 = const()[name = tensor<string, []>("model_pretrained_blocks_0_mlp_fc2_weight_to_fp16"), val = tensor<fp16, [384, 1536]>(BLOBFILE(path = tensor<string, []>("@model_path/weights/weight.bin"), offset = tensor<uint64, []>(3874816)))];
            tensor<fp16, [384]> model_pretrained_blocks_0_mlp_fc2_bias_to_fp16 = const()[name = tensor<string, []>("model_pretrained_blocks_0_mlp_fc2_bias_to_fp16"), val = tensor<fp16, [384]>(BLOBFILE(path = tensor<string, []>("@model_path/weights/weight.bin"), offset = tensor<uint64, []>(5054528)))];
            tensor<fp16, [1, 1037, 384]> linear_3_cast_fp16 = linear(bias = model_pretrained_blocks_0_mlp_fc2_bias_to_fp16, weight = model_pretrained_blocks_0_mlp_fc2_weight_to_fp16, x = input_17_cast_fp16)[name = tensor<string, []>("linear_3_cast_fp16")];
            tensor<fp16, [384]> model_pretrained_blocks_0_ls2_gamma_to_fp16 = const()[name = tensor<string, []>("model_pretrained_blocks_0_ls2_gamma_to_fp16"), val = tensor<fp16, [384]>(BLOBFILE(path = tensor<string, []>("@model_path/weights/weight.bin"), offset = tensor<uint64, []>(5055360)))];
            tensor<fp16, [1, 1037, 384]> var_186_cast_fp16 = mul(x = linear_3_cast_fp16, y = model_pretrained_blocks_0_ls2_gamma_to_fp16)[name = tensor<string, []>("op_186_cast_fp16")];
            tensor<fp16, [1, 1037, 384]> input_23_cast_fp16 = add(x = input_11_cast_fp16, y = var_186_cast_fp16)[name = tensor<string, []>("input_23_cast_fp16")];
            tensor<int32, [1]> x_15_axes_0 = const()[name = tensor<string, []>("x_15_axes_0"), val = tensor<int32, [1]>([-1])];
            tensor<fp16, [384]> model_pretrained_blocks_1_norm1_weight_to_fp16 = const()[name = tensor<string, []>("model_pretrained_blocks_1_norm1_weight_to_fp16"), val = tensor<fp16, [384]>(BLOBFILE(path = tensor<string, []>("@model_path/weights/weight.bin"), offset = tensor<uint64, []>(5056192)))];
            tensor<fp16, [384]> model_pretrained_blocks_1_norm1_bias_to_fp16 = const()[name = tensor<string, []>("model_pretrained_blocks_1_norm1_bias_to_fp16"), val = tensor<fp16, [384]>(BLOBFILE(path = tensor<string, []>("@model_path/weights/weight.bin"), offset = tensor<uint64, []>(5057024)))];
            tensor<fp16, [1, 1037, 384]> x_15_cast_fp16 = layer_norm(axes = x_15_axes_0, beta = model_pretrained_blocks_1_norm1_bias_to_fp16, epsilon = var_8_to_fp16, gamma = model_pretrained_blocks_1_norm1_weight_to_fp16, x = input_23_cast_fp16)[name = tensor<string, []>("x_15_cast_fp16")];
            tensor<fp16, [1152, 384]> model_pretrained_blocks_1_attn_qkv_weight_to_fp16 = const()[name = tensor<string, []>("model_pretrained_blocks_1_attn_qkv_weight_to_fp16"), val = tensor<fp16, [1152, 384]>(BLOBFILE(path = tensor<string, []>("@model_path/weights/weight.bin"), offset = tensor<uint64, []>(5057856)))];
            tensor<fp16, [1152]> model_pretrained_blocks_1_attn_qkv_bias_to_fp16 = const()[name = tensor<string, []>("model_pretrained_blocks_1_attn_qkv_bias_to_fp16"), val = tensor<fp16, [1152]>(BLOBFILE(path = tensor<string, []>("@model_path/weights/weight.bin"), offset = tensor<uint64, []>(5942656)))];
            tensor<fp16, [1, 1037, 1152]> linear_4_cast_fp16 = linear(bias = model_pretrained_blocks_1_attn_qkv_bias_to_fp16, weight = model_pretrained_blocks_1_attn_qkv_weight_to_fp16, x = x_15_cast_fp16)[name = tensor<string, []>("linear_4_cast_fp16")];
            tensor<int32, [5]> var_209 = const()[name = tensor<string, []>("op_209"), val = tensor<int32, [5]>([1, 1037, 3, 6, 64])];
            tensor<fp16, [1, 1037, 3, 6, 64]> var_210_cast_fp16 = reshape(shape = var_209, x = linear_4_cast_fp16)[name = tensor<string, []>("op_210_cast_fp16")];
            tensor<int32, [5]> var_211 = const()[name = tensor<string, []>("op_211"), val = tensor<int32, [5]>([2, 0, 3, 1, 4])];
            tensor<int32, [5]> var_213_begin_0 = const()[name = tensor<string, []>("op_213_begin_0"), val = tensor<int32, [5]>([0, 0, 0, 0, 0])];
            tensor<int32, [5]> var_213_end_0 = const()[name = tensor<string, []>("op_213_end_0"), val = tensor<int32, [5]>([1, 1, 6, 1037, 64])];
            tensor<bool, [5]> var_213_end_mask_0 = const()[name = tensor<string, []>("op_213_end_mask_0"), val = tensor<bool, [5]>([false, true, true, true, true])];
            tensor<bool, [5]> var_213_squeeze_mask_0 = const()[name = tensor<string, []>("op_213_squeeze_mask_0"), val = tensor<bool, [5]>([true, false, false, false, false])];
            tensor<fp16, [3, 1, 6, 1037, 64]> qkv_3_cast_fp16 = transpose(perm = var_211, x = var_210_cast_fp16)[name = tensor<string, []>("transpose_25")];
            tensor<fp16, [1, 6, 1037, 64]> var_213_cast_fp16 = slice_by_index(begin = var_213_begin_0, end = var_213_end_0, end_mask = var_213_end_mask_0, squeeze_mask = var_213_squeeze_mask_0, x = qkv_3_cast_fp16)[name = tensor<string, []>("op_213_cast_fp16")];
            tensor<fp16, []> var_214_to_fp16 = const()[name = tensor<string, []>("op_214_to_fp16"), val = tensor<fp16, []>(0x1p-3)];
            tensor<fp16, [1, 6, 1037, 64]> q_3_cast_fp16 = mul(x = var_213_cast_fp16, y = var_214_to_fp16)[name = tensor<string, []>("q_3_cast_fp16")];
            tensor<int32, [5]> k_3_begin_0 = const()[name = tensor<string, []>("k_3_begin_0"), val = tensor<int32, [5]>([1, 0, 0, 0, 0])];
            tensor<int32, [5]> k_3_end_0 = const()[name = tensor<string, []>("k_3_end_0"), val = tensor<int32, [5]>([2, 1, 6, 1037, 64])];
            tensor<bool, [5]> k_3_end_mask_0 = const()[name = tensor<string, []>("k_3_end_mask_0"), val = tensor<bool, [5]>([false, true, true, true, true])];
            tensor<bool, [5]> k_3_squeeze_mask_0 = const()[name = tensor<string, []>("k_3_squeeze_mask_0"), val = tensor<bool, [5]>([true, false, false, false, false])];
            tensor<fp16, [1, 6, 1037, 64]> k_3_cast_fp16 = slice_by_index(begin = k_3_begin_0, end = k_3_end_0, end_mask = k_3_end_mask_0, squeeze_mask = k_3_squeeze_mask_0, x = qkv_3_cast_fp16)[name = tensor<string, []>("k_3_cast_fp16")];
            tensor<int32, [5]> v_3_begin_0 = const()[name = tensor<string, []>("v_3_begin_0"), val = tensor<int32, [5]>([2, 0, 0, 0, 0])];
            tensor<int32, [5]> v_3_end_0 = const()[name = tensor<string, []>("v_3_end_0"), val = tensor<int32, [5]>([3, 1, 6, 1037, 64])];
            tensor<bool, [5]> v_3_end_mask_0 = const()[name = tensor<string, []>("v_3_end_mask_0"), val = tensor<bool, [5]>([false, true, true, true, true])];
            tensor<bool, [5]> v_3_squeeze_mask_0 = const()[name = tensor<string, []>("v_3_squeeze_mask_0"), val = tensor<bool, [5]>([true, false, false, false, false])];
            tensor<fp16, [1, 6, 1037, 64]> v_3_cast_fp16 = slice_by_index(begin = v_3_begin_0, end = v_3_end_0, end_mask = v_3_end_mask_0, squeeze_mask = v_3_squeeze_mask_0, x = qkv_3_cast_fp16)[name = tensor<string, []>("v_3_cast_fp16")];
            tensor<bool, []> attn_5_transpose_x_1 = const()[name = tensor<string, []>("attn_5_transpose_x_1"), val = tensor<bool, []>(false)];
            tensor<bool, []> attn_5_transpose_y_1 = const()[name = tensor<string, []>("attn_5_transpose_y_1"), val = tensor<bool, []>(true)];
            tensor<fp16, [1, 6, 1037, 1037]> attn_5_cast_fp16 = matmul(transpose_x = attn_5_transpose_x_1, transpose_y = attn_5_transpose_y_1, x = q_3_cast_fp16, y = k_3_cast_fp16)[name = tensor<string, []>("attn_5_cast_fp16")];
            tensor<fp16, [1, 6, 1037, 1037]> input_25_cast_fp16 = softmax(axis = var_26, x = attn_5_cast_fp16)[name = tensor<string, []>("input_25_cast_fp16")];
            tensor<bool, []> var_222_transpose_x_0 = const()[name = tensor<string, []>("op_222_transpose_x_0"), val = tensor<bool, []>(false)];
            tensor<bool, []> var_222_transpose_y_0 = const()[name = tensor<string, []>("op_222_transpose_y_0"), val = tensor<bool, []>(false)];
            tensor<fp16, [1, 6, 1037, 64]> var_222_cast_fp16 = matmul(transpose_x = var_222_transpose_x_0, transpose_y = var_222_transpose_y_0, x = input_25_cast_fp16, y = v_3_cast_fp16)[name = tensor<string, []>("op_222_cast_fp16")];
            tensor<int32, [4]> var_223_perm_0 = const()[name = tensor<string, []>("op_223_perm_0"), val = tensor<int32, [4]>([0, 2, 1, 3])];
            tensor<int32, [3]> var_224 = const()[name = tensor<string, []>("op_224"), val = tensor<int32, [3]>([1, 1037, 384])];
            tensor<fp16, [1, 1037, 6, 64]> var_223_cast_fp16 = transpose(perm = var_223_perm_0, x = var_222_cast_fp16)[name = tensor<string, []>("transpose_24")];
            tensor<fp16, [1, 1037, 384]> input_27_cast_fp16 = reshape(shape = var_224, x = var_223_cast_fp16)[name = tensor<string, []>("input_27_cast_fp16")];
            tensor<fp16, [384, 384]> model_pretrained_blocks_1_attn_proj_weight_to_fp16 = const()[name = tensor<string, []>("model_pretrained_blocks_1_attn_proj_weight_to_fp16"), val = tensor<fp16, [384, 384]>(BLOBFILE(path = tensor<string, []>("@model_path/weights/weight.bin"), offset = tensor<uint64, []>(5945024)))];
            tensor<fp16, [384]> model_pretrained_blocks_1_attn_proj_bias_to_fp16 = const()[name = tensor<string, []>("model_pretrained_blocks_1_attn_proj_bias_to_fp16"), val = tensor<fp16, [384]>(BLOBFILE(path = tensor<string, []>("@model_path/weights/weight.bin"), offset = tensor<uint64, []>(6240000)))];
            tensor<fp16, [1, 1037, 384]> linear_5_cast_fp16 = linear(bias = model_pretrained_blocks_1_attn_proj_bias_to_fp16, weight = model_pretrained_blocks_1_attn_proj_weight_to_fp16, x = input_27_cast_fp16)[name = tensor<string, []>("linear_5_cast_fp16")];
            tensor<fp16, [384]> model_pretrained_blocks_1_ls1_gamma_to_fp16 = const()[name = tensor<string, []>("model_pretrained_blocks_1_ls1_gamma_to_fp16"), val = tensor<fp16, [384]>(BLOBFILE(path = tensor<string, []>("@model_path/weights/weight.bin"), offset = tensor<uint64, []>(6240832)))];
            tensor<fp16, [1, 1037, 384]> var_231_cast_fp16 = mul(x = linear_5_cast_fp16, y = model_pretrained_blocks_1_ls1_gamma_to_fp16)[name = tensor<string, []>("op_231_cast_fp16")];
            tensor<fp16, [1, 1037, 384]> input_31_cast_fp16 = add(x = input_23_cast_fp16, y = var_231_cast_fp16)[name = tensor<string, []>("input_31_cast_fp16")];
            tensor<int32, [1]> input_33_axes_0 = const()[name = tensor<string, []>("input_33_axes_0"), val = tensor<int32, [1]>([-1])];
            tensor<fp16, [384]> model_pretrained_blocks_1_norm2_weight_to_fp16 = const()[name = tensor<string, []>("model_pretrained_blocks_1_norm2_weight_to_fp16"), val = tensor<fp16, [384]>(BLOBFILE(path = tensor<string, []>("@model_path/weights/weight.bin"), offset = tensor<uint64, []>(6241664)))];
            tensor<fp16, [384]> model_pretrained_blocks_1_norm2_bias_to_fp16 = const()[name = tensor<string, []>("model_pretrained_blocks_1_norm2_bias_to_fp16"), val = tensor<fp16, [384]>(BLOBFILE(path = tensor<string, []>("@model_path/weights/weight.bin"), offset = tensor<uint64, []>(6242496)))];
            tensor<fp16, [1, 1037, 384]> input_33_cast_fp16 = layer_norm(axes = input_33_axes_0, beta = model_pretrained_blocks_1_norm2_bias_to_fp16, epsilon = var_8_to_fp16, gamma = model_pretrained_blocks_1_norm2_weight_to_fp16, x = input_31_cast_fp16)[name = tensor<string, []>("input_33_cast_fp16")];
            tensor<fp16, [1536, 384]> model_pretrained_blocks_1_mlp_fc1_weight_to_fp16 = const()[name = tensor<string, []>("model_pretrained_blocks_1_mlp_fc1_weight_to_fp16"), val = tensor<fp16, [1536, 384]>(BLOBFILE(path = tensor<string, []>("@model_path/weights/weight.bin"), offset = tensor<uint64, []>(6243328)))];
            tensor<fp16, [1536]> model_pretrained_blocks_1_mlp_fc1_bias_to_fp16 = const()[name = tensor<string, []>("model_pretrained_blocks_1_mlp_fc1_bias_to_fp16"), val = tensor<fp16, [1536]>(BLOBFILE(path = tensor<string, []>("@model_path/weights/weight.bin"), offset = tensor<uint64, []>(7423040)))];
            tensor<fp16, [1, 1037, 1536]> linear_6_cast_fp16 = linear(bias = model_pretrained_blocks_1_mlp_fc1_bias_to_fp16, weight = model_pretrained_blocks_1_mlp_fc1_weight_to_fp16, x = input_33_cast_fp16)[name = tensor<string, []>("linear_6_cast_fp16")];
            tensor<string, []> input_37_mode_0 = const()[name = tensor<string, []>("input_37_mode_0"), val = tensor<string, []>("EXACT")];
            tensor<fp16, [1, 1037, 1536]> input_37_cast_fp16 = gelu(mode = input_37_mode_0, x = linear_6_cast_fp16)[name = tensor<string, []>("input_37_cast_fp16")];
            tensor<fp16, [384, 1536]> model_pretrained_blocks_1_mlp_fc2_weight_to_fp16 = const()[name = tensor<string, []>("model_pretrained_blocks_1_mlp_fc2_weight_to_fp16"), val = tensor<fp16, [384, 1536]>(BLOBFILE(path = tensor<string, []>("@model_path/weights/weight.bin"), offset = tensor<uint64, []>(7426176)))];
            tensor<fp16, [384]> model_pretrained_blocks_1_mlp_fc2_bias_to_fp16 = const()[name = tensor<string, []>("model_pretrained_blocks_1_mlp_fc2_bias_to_fp16"), val = tensor<fp16, [384]>(BLOBFILE(path = tensor<string, []>("@model_path/weights/weight.bin"), offset = tensor<uint64, []>(8605888)))];
            tensor<fp16, [1, 1037, 384]> linear_7_cast_fp16 = linear(bias = model_pretrained_blocks_1_mlp_fc2_bias_to_fp16, weight = model_pretrained_blocks_1_mlp_fc2_weight_to_fp16, x = input_37_cast_fp16)[name = tensor<string, []>("linear_7_cast_fp16")];
            tensor<fp16, [384]> model_pretrained_blocks_1_ls2_gamma_to_fp16 = const()[name = tensor<string, []>("model_pretrained_blocks_1_ls2_gamma_to_fp16"), val = tensor<fp16, [384]>(BLOBFILE(path = tensor<string, []>("@model_path/weights/weight.bin"), offset = tensor<uint64, []>(8606720)))];
            tensor<fp16, [1, 1037, 384]> var_249_cast_fp16 = mul(x = linear_7_cast_fp16, y = model_pretrained_blocks_1_ls2_gamma_to_fp16)[name = tensor<string, []>("op_249_cast_fp16")];
            tensor<fp16, [1, 1037, 384]> input_43_cast_fp16 = add(x = input_31_cast_fp16, y = var_249_cast_fp16)[name = tensor<string, []>("input_43_cast_fp16")];
            tensor<int32, [1]> x_21_axes_0 = const()[name = tensor<string, []>("x_21_axes_0"), val = tensor<int32, [1]>([-1])];
            tensor<fp16, [384]> model_pretrained_blocks_2_norm1_weight_to_fp16 = const()[name = tensor<string, []>("model_pretrained_blocks_2_norm1_weight_to_fp16"), val = tensor<fp16, [384]>(BLOBFILE(path = tensor<string, []>("@model_path/weights/weight.bin"), offset = tensor<uint64, []>(8607552)))];
            tensor<fp16, [384]> model_pretrained_blocks_2_norm1_bias_to_fp16 = const()[name = tensor<string, []>("model_pretrained_blocks_2_norm1_bias_to_fp16"), val = tensor<fp16, [384]>(BLOBFILE(path = tensor<string, []>("@model_path/weights/weight.bin"), offset = tensor<uint64, []>(8608384)))];
            tensor<fp16, [1, 1037, 384]> x_21_cast_fp16 = layer_norm(axes = x_21_axes_0, beta = model_pretrained_blocks_2_norm1_bias_to_fp16, epsilon = var_8_to_fp16, gamma = model_pretrained_blocks_2_norm1_weight_to_fp16, x = input_43_cast_fp16)[name = tensor<string, []>("x_21_cast_fp16")];
            tensor<fp16, [1152, 384]> model_pretrained_blocks_2_attn_qkv_weight_to_fp16 = const()[name = tensor<string, []>("model_pretrained_blocks_2_attn_qkv_weight_to_fp16"), val = tensor<fp16, [1152, 384]>(BLOBFILE(path = tensor<string, []>("@model_path/weights/weight.bin"), offset = tensor<uint64, []>(8609216)))];
            tensor<fp16, [1152]> model_pretrained_blocks_2_attn_qkv_bias_to_fp16 = const()[name = tensor<string, []>("model_pretrained_blocks_2_attn_qkv_bias_to_fp16"), val = tensor<fp16, [1152]>(BLOBFILE(path = tensor<string, []>("@model_path/weights/weight.bin"), offset = tensor<uint64, []>(9494016)))];
            tensor<fp16, [1, 1037, 1152]> linear_8_cast_fp16 = linear(bias = model_pretrained_blocks_2_attn_qkv_bias_to_fp16, weight = model_pretrained_blocks_2_attn_qkv_weight_to_fp16, x = x_21_cast_fp16)[name = tensor<string, []>("linear_8_cast_fp16")];
            tensor<int32, [5]> var_272 = const()[name = tensor<string, []>("op_272"), val = tensor<int32, [5]>([1, 1037, 3, 6, 64])];
            tensor<fp16, [1, 1037, 3, 6, 64]> var_273_cast_fp16 = reshape(shape = var_272, x = linear_8_cast_fp16)[name = tensor<string, []>("op_273_cast_fp16")];
            tensor<int32, [5]> var_274 = const()[name = tensor<string, []>("op_274"), val = tensor<int32, [5]>([2, 0, 3, 1, 4])];
            tensor<int32, [5]> var_276_begin_0 = const()[name = tensor<string, []>("op_276_begin_0"), val = tensor<int32, [5]>([0, 0, 0, 0, 0])];
            tensor<int32, [5]> var_276_end_0 = const()[name = tensor<string, []>("op_276_end_0"), val = tensor<int32, [5]>([1, 1, 6, 1037, 64])];
            tensor<bool, [5]> var_276_end_mask_0 = const()[name = tensor<string, []>("op_276_end_mask_0"), val = tensor<bool, [5]>([false, true, true, true, true])];
            tensor<bool, [5]> var_276_squeeze_mask_0 = const()[name = tensor<string, []>("op_276_squeeze_mask_0"), val = tensor<bool, [5]>([true, false, false, false, false])];
            tensor<fp16, [3, 1, 6, 1037, 64]> qkv_5_cast_fp16 = transpose(perm = var_274, x = var_273_cast_fp16)[name = tensor<string, []>("transpose_23")];
            tensor<fp16, [1, 6, 1037, 64]> var_276_cast_fp16 = slice_by_index(begin = var_276_begin_0, end = var_276_end_0, end_mask = var_276_end_mask_0, squeeze_mask = var_276_squeeze_mask_0, x = qkv_5_cast_fp16)[name = tensor<string, []>("op_276_cast_fp16")];
            tensor<fp16, []> var_277_to_fp16 = const()[name = tensor<string, []>("op_277_to_fp16"), val = tensor<fp16, []>(0x1p-3)];
            tensor<fp16, [1, 6, 1037, 64]> q_5_cast_fp16 = mul(x = var_276_cast_fp16, y = var_277_to_fp16)[name = tensor<string, []>("q_5_cast_fp16")];
            tensor<int32, [5]> k_5_begin_0 = const()[name = tensor<string, []>("k_5_begin_0"), val = tensor<int32, [5]>([1, 0, 0, 0, 0])];
            tensor<int32, [5]> k_5_end_0 = const()[name = tensor<string, []>("k_5_end_0"), val = tensor<int32, [5]>([2, 1, 6, 1037, 64])];
            tensor<bool, [5]> k_5_end_mask_0 = const()[name = tensor<string, []>("k_5_end_mask_0"), val = tensor<bool, [5]>([false, true, true, true, true])];
            tensor<bool, [5]> k_5_squeeze_mask_0 = const()[name = tensor<string, []>("k_5_squeeze_mask_0"), val = tensor<bool, [5]>([true, false, false, false, false])];
            tensor<fp16, [1, 6, 1037, 64]> k_5_cast_fp16 = slice_by_index(begin = k_5_begin_0, end = k_5_end_0, end_mask = k_5_end_mask_0, squeeze_mask = k_5_squeeze_mask_0, x = qkv_5_cast_fp16)[name = tensor<string, []>("k_5_cast_fp16")];
            tensor<int32, [5]> v_5_begin_0 = const()[name = tensor<string, []>("v_5_begin_0"), val = tensor<int32, [5]>([2, 0, 0, 0, 0])];
            tensor<int32, [5]> v_5_end_0 = const()[name = tensor<string, []>("v_5_end_0"), val = tensor<int32, [5]>([3, 1, 6, 1037, 64])];
            tensor<bool, [5]> v_5_end_mask_0 = const()[name = tensor<string, []>("v_5_end_mask_0"), val = tensor<bool, [5]>([false, true, true, true, true])];
            tensor<bool, [5]> v_5_squeeze_mask_0 = const()[name = tensor<string, []>("v_5_squeeze_mask_0"), val = tensor<bool, [5]>([true, false, false, false, false])];
            tensor<fp16, [1, 6, 1037, 64]> v_5_cast_fp16 = slice_by_index(begin = v_5_begin_0, end = v_5_end_0, end_mask = v_5_end_mask_0, squeeze_mask = v_5_squeeze_mask_0, x = qkv_5_cast_fp16)[name = tensor<string, []>("v_5_cast_fp16")];
            tensor<bool, []> attn_9_transpose_x_1 = const()[name = tensor<string, []>("attn_9_transpose_x_1"), val = tensor<bool, []>(false)];
            tensor<bool, []> attn_9_transpose_y_1 = const()[name = tensor<string, []>("attn_9_transpose_y_1"), val = tensor<bool, []>(true)];
            tensor<fp16, [1, 6, 1037, 1037]> attn_9_cast_fp16 = matmul(transpose_x = attn_9_transpose_x_1, transpose_y = attn_9_transpose_y_1, x = q_5_cast_fp16, y = k_5_cast_fp16)[name = tensor<string, []>("attn_9_cast_fp16")];
            tensor<fp16, [1, 6, 1037, 1037]> input_45_cast_fp16 = softmax(axis = var_26, x = attn_9_cast_fp16)[name = tensor<string, []>("input_45_cast_fp16")];
            tensor<bool, []> var_285_transpose_x_0 = const()[name = tensor<string, []>("op_285_transpose_x_0"), val = tensor<bool, []>(false)];
            tensor<bool, []> var_285_transpose_y_0 = const()[name = tensor<string, []>("op_285_transpose_y_0"), val = tensor<bool, []>(false)];
            tensor<fp16, [1, 6, 1037, 64]> var_285_cast_fp16 = matmul(transpose_x = var_285_transpose_x_0, transpose_y = var_285_transpose_y_0, x = input_45_cast_fp16, y = v_5_cast_fp16)[name = tensor<string, []>("op_285_cast_fp16")];
            tensor<int32, [4]> var_286_perm_0 = const()[name = tensor<string, []>("op_286_perm_0"), val = tensor<int32, [4]>([0, 2, 1, 3])];
            tensor<int32, [3]> var_287 = const()[name = tensor<string, []>("op_287"), val = tensor<int32, [3]>([1, 1037, 384])];
            tensor<fp16, [1, 1037, 6, 64]> var_286_cast_fp16 = transpose(perm = var_286_perm_0, x = var_285_cast_fp16)[name = tensor<string, []>("transpose_22")];
            tensor<fp16, [1, 1037, 384]> input_47_cast_fp16 = reshape(shape = var_287, x = var_286_cast_fp16)[name = tensor<string, []>("input_47_cast_fp16")];
            tensor<fp16, [384, 384]> model_pretrained_blocks_2_attn_proj_weight_to_fp16 = const()[name = tensor<string, []>("model_pretrained_blocks_2_attn_proj_weight_to_fp16"), val = tensor<fp16, [384, 384]>(BLOBFILE(path = tensor<string, []>("@model_path/weights/weight.bin"), offset = tensor<uint64, []>(9496384)))];
            tensor<fp16, [384]> model_pretrained_blocks_2_attn_proj_bias_to_fp16 = const()[name = tensor<string, []>("model_pretrained_blocks_2_attn_proj_bias_to_fp16"), val = tensor<fp16, [384]>(BLOBFILE(path = tensor<string, []>("@model_path/weights/weight.bin"), offset = tensor<uint64, []>(9791360)))];
            tensor<fp16, [1, 1037, 384]> linear_9_cast_fp16 = linear(bias = model_pretrained_blocks_2_attn_proj_bias_to_fp16, weight = model_pretrained_blocks_2_attn_proj_weight_to_fp16, x = input_47_cast_fp16)[name = tensor<string, []>("linear_9_cast_fp16")];
            tensor<fp16, [384]> model_pretrained_blocks_2_ls1_gamma_to_fp16 = const()[name = tensor<string, []>("model_pretrained_blocks_2_ls1_gamma_to_fp16"), val = tensor<fp16, [384]>(BLOBFILE(path = tensor<string, []>("@model_path/weights/weight.bin"), offset = tensor<uint64, []>(9792192)))];
            tensor<fp16, [1, 1037, 384]> var_294_cast_fp16 = mul(x = linear_9_cast_fp16, y = model_pretrained_blocks_2_ls1_gamma_to_fp16)[name = tensor<string, []>("op_294_cast_fp16")];
            tensor<fp16, [1, 1037, 384]> input_51_cast_fp16 = add(x = input_43_cast_fp16, y = var_294_cast_fp16)[name = tensor<string, []>("input_51_cast_fp16")];
            tensor<int32, [1]> input_53_axes_0 = const()[name = tensor<string, []>("input_53_axes_0"), val = tensor<int32, [1]>([-1])];
            tensor<fp16, [384]> model_pretrained_blocks_2_norm2_weight_to_fp16 = const()[name = tensor<string, []>("model_pretrained_blocks_2_norm2_weight_to_fp16"), val = tensor<fp16, [384]>(BLOBFILE(path = tensor<string, []>("@model_path/weights/weight.bin"), offset = tensor<uint64, []>(9793024)))];
            tensor<fp16, [384]> model_pretrained_blocks_2_norm2_bias_to_fp16 = const()[name = tensor<string, []>("model_pretrained_blocks_2_norm2_bias_to_fp16"), val = tensor<fp16, [384]>(BLOBFILE(path = tensor<string, []>("@model_path/weights/weight.bin"), offset = tensor<uint64, []>(9793856)))];
            tensor<fp16, [1, 1037, 384]> input_53_cast_fp16 = layer_norm(axes = input_53_axes_0, beta = model_pretrained_blocks_2_norm2_bias_to_fp16, epsilon = var_8_to_fp16, gamma = model_pretrained_blocks_2_norm2_weight_to_fp16, x = input_51_cast_fp16)[name = tensor<string, []>("input_53_cast_fp16")];
            tensor<fp16, [1536, 384]> model_pretrained_blocks_2_mlp_fc1_weight_to_fp16 = const()[name = tensor<string, []>("model_pretrained_blocks_2_mlp_fc1_weight_to_fp16"), val = tensor<fp16, [1536, 384]>(BLOBFILE(path = tensor<string, []>("@model_path/weights/weight.bin"), offset = tensor<uint64, []>(9794688)))];
            tensor<fp16, [1536]> model_pretrained_blocks_2_mlp_fc1_bias_to_fp16 = const()[name = tensor<string, []>("model_pretrained_blocks_2_mlp_fc1_bias_to_fp16"), val = tensor<fp16, [1536]>(BLOBFILE(path = tensor<string, []>("@model_path/weights/weight.bin"), offset = tensor<uint64, []>(10974400)))];
            tensor<fp16, [1, 1037, 1536]> linear_10_cast_fp16 = linear(bias = model_pretrained_blocks_2_mlp_fc1_bias_to_fp16, weight = model_pretrained_blocks_2_mlp_fc1_weight_to_fp16, x = input_53_cast_fp16)[name = tensor<string, []>("linear_10_cast_fp16")];
            tensor<string, []> input_57_mode_0 = const()[name = tensor<string, []>("input_57_mode_0"), val = tensor<string, []>("EXACT")];
            tensor<fp16, [1, 1037, 1536]> input_57_cast_fp16 = gelu(mode = input_57_mode_0, x = linear_10_cast_fp16)[name = tensor<string, []>("input_57_cast_fp16")];
            tensor<fp16, [384, 1536]> model_pretrained_blocks_2_mlp_fc2_weight_to_fp16 = const()[name = tensor<string, []>("model_pretrained_blocks_2_mlp_fc2_weight_to_fp16"), val = tensor<fp16, [384, 1536]>(BLOBFILE(path = tensor<string, []>("@model_path/weights/weight.bin"), offset = tensor<uint64, []>(10977536)))];
            tensor<fp16, [384]> model_pretrained_blocks_2_mlp_fc2_bias_to_fp16 = const()[name = tensor<string, []>("model_pretrained_blocks_2_mlp_fc2_bias_to_fp16"), val = tensor<fp16, [384]>(BLOBFILE(path = tensor<string, []>("@model_path/weights/weight.bin"), offset = tensor<uint64, []>(12157248)))];
            tensor<fp16, [1, 1037, 384]> linear_11_cast_fp16 = linear(bias = model_pretrained_blocks_2_mlp_fc2_bias_to_fp16, weight = model_pretrained_blocks_2_mlp_fc2_weight_to_fp16, x = input_57_cast_fp16)[name = tensor<string, []>("linear_11_cast_fp16")];
            tensor<fp16, [384]> model_pretrained_blocks_2_ls2_gamma_to_fp16 = const()[name = tensor<string, []>("model_pretrained_blocks_2_ls2_gamma_to_fp16"), val = tensor<fp16, [384]>(BLOBFILE(path = tensor<string, []>("@model_path/weights/weight.bin"), offset = tensor<uint64, []>(12158080)))];
            tensor<fp16, [1, 1037, 384]> var_312_cast_fp16 = mul(x = linear_11_cast_fp16, y = model_pretrained_blocks_2_ls2_gamma_to_fp16)[name = tensor<string, []>("op_312_cast_fp16")];
            tensor<fp16, [1, 1037, 384]> input_63_cast_fp16 = add(x = input_51_cast_fp16, y = var_312_cast_fp16)[name = tensor<string, []>("input_63_cast_fp16")];
            tensor<int32, [1]> x_27_axes_0 = const()[name = tensor<string, []>("x_27_axes_0"), val = tensor<int32, [1]>([-1])];
            tensor<fp16, [384]> model_pretrained_blocks_3_norm1_weight_to_fp16 = const()[name = tensor<string, []>("model_pretrained_blocks_3_norm1_weight_to_fp16"), val = tensor<fp16, [384]>(BLOBFILE(path = tensor<string, []>("@model_path/weights/weight.bin"), offset = tensor<uint64, []>(12158912)))];
            tensor<fp16, [384]> model_pretrained_blocks_3_norm1_bias_to_fp16 = const()[name = tensor<string, []>("model_pretrained_blocks_3_norm1_bias_to_fp16"), val = tensor<fp16, [384]>(BLOBFILE(path = tensor<string, []>("@model_path/weights/weight.bin"), offset = tensor<uint64, []>(12159744)))];
            tensor<fp16, [1, 1037, 384]> x_27_cast_fp16 = layer_norm(axes = x_27_axes_0, beta = model_pretrained_blocks_3_norm1_bias_to_fp16, epsilon = var_8_to_fp16, gamma = model_pretrained_blocks_3_norm1_weight_to_fp16, x = input_63_cast_fp16)[name = tensor<string, []>("x_27_cast_fp16")];
            tensor<fp16, [1152, 384]> model_pretrained_blocks_3_attn_qkv_weight_to_fp16 = const()[name = tensor<string, []>("model_pretrained_blocks_3_attn_qkv_weight_to_fp16"), val = tensor<fp16, [1152, 384]>(BLOBFILE(path = tensor<string, []>("@model_path/weights/weight.bin"), offset = tensor<uint64, []>(12160576)))];
            tensor<fp16, [1152]> model_pretrained_blocks_3_attn_qkv_bias_to_fp16 = const()[name = tensor<string, []>("model_pretrained_blocks_3_attn_qkv_bias_to_fp16"), val = tensor<fp16, [1152]>(BLOBFILE(path = tensor<string, []>("@model_path/weights/weight.bin"), offset = tensor<uint64, []>(13045376)))];
            tensor<fp16, [1, 1037, 1152]> linear_12_cast_fp16 = linear(bias = model_pretrained_blocks_3_attn_qkv_bias_to_fp16, weight = model_pretrained_blocks_3_attn_qkv_weight_to_fp16, x = x_27_cast_fp16)[name = tensor<string, []>("linear_12_cast_fp16")];
            tensor<int32, [5]> var_335 = const()[name = tensor<string, []>("op_335"), val = tensor<int32, [5]>([1, 1037, 3, 6, 64])];
            tensor<fp16, [1, 1037, 3, 6, 64]> var_336_cast_fp16 = reshape(shape = var_335, x = linear_12_cast_fp16)[name = tensor<string, []>("op_336_cast_fp16")];
            tensor<int32, [5]> var_337 = const()[name = tensor<string, []>("op_337"), val = tensor<int32, [5]>([2, 0, 3, 1, 4])];
            tensor<int32, [5]> var_339_begin_0 = const()[name = tensor<string, []>("op_339_begin_0"), val = tensor<int32, [5]>([0, 0, 0, 0, 0])];
            tensor<int32, [5]> var_339_end_0 = const()[name = tensor<string, []>("op_339_end_0"), val = tensor<int32, [5]>([1, 1, 6, 1037, 64])];
            tensor<bool, [5]> var_339_end_mask_0 = const()[name = tensor<string, []>("op_339_end_mask_0"), val = tensor<bool, [5]>([false, true, true, true, true])];
            tensor<bool, [5]> var_339_squeeze_mask_0 = const()[name = tensor<string, []>("op_339_squeeze_mask_0"), val = tensor<bool, [5]>([true, false, false, false, false])];
            tensor<fp16, [3, 1, 6, 1037, 64]> qkv_7_cast_fp16 = transpose(perm = var_337, x = var_336_cast_fp16)[name = tensor<string, []>("transpose_21")];
            tensor<fp16, [1, 6, 1037, 64]> var_339_cast_fp16 = slice_by_index(begin = var_339_begin_0, end = var_339_end_0, end_mask = var_339_end_mask_0, squeeze_mask = var_339_squeeze_mask_0, x = qkv_7_cast_fp16)[name = tensor<string, []>("op_339_cast_fp16")];
            tensor<fp16, []> var_340_to_fp16 = const()[name = tensor<string, []>("op_340_to_fp16"), val = tensor<fp16, []>(0x1p-3)];
            tensor<fp16, [1, 6, 1037, 64]> q_7_cast_fp16 = mul(x = var_339_cast_fp16, y = var_340_to_fp16)[name = tensor<string, []>("q_7_cast_fp16")];
            tensor<int32, [5]> k_7_begin_0 = const()[name = tensor<string, []>("k_7_begin_0"), val = tensor<int32, [5]>([1, 0, 0, 0, 0])];
            tensor<int32, [5]> k_7_end_0 = const()[name = tensor<string, []>("k_7_end_0"), val = tensor<int32, [5]>([2, 1, 6, 1037, 64])];
            tensor<bool, [5]> k_7_end_mask_0 = const()[name = tensor<string, []>("k_7_end_mask_0"), val = tensor<bool, [5]>([false, true, true, true, true])];
            tensor<bool, [5]> k_7_squeeze_mask_0 = const()[name = tensor<string, []>("k_7_squeeze_mask_0"), val = tensor<bool, [5]>([true, false, false, false, false])];
            tensor<fp16, [1, 6, 1037, 64]> k_7_cast_fp16 = slice_by_index(begin = k_7_begin_0, end = k_7_end_0, end_mask = k_7_end_mask_0, squeeze_mask = k_7_squeeze_mask_0, x = qkv_7_cast_fp16)[name = tensor<string, []>("k_7_cast_fp16")];
            tensor<int32, [5]> v_7_begin_0 = const()[name = tensor<string, []>("v_7_begin_0"), val = tensor<int32, [5]>([2, 0, 0, 0, 0])];
            tensor<int32, [5]> v_7_end_0 = const()[name = tensor<string, []>("v_7_end_0"), val = tensor<int32, [5]>([3, 1, 6, 1037, 64])];
            tensor<bool, [5]> v_7_end_mask_0 = const()[name = tensor<string, []>("v_7_end_mask_0"), val = tensor<bool, [5]>([false, true, true, true, true])];
            tensor<bool, [5]> v_7_squeeze_mask_0 = const()[name = tensor<string, []>("v_7_squeeze_mask_0"), val = tensor<bool, [5]>([true, false, false, false, false])];
            tensor<fp16, [1, 6, 1037, 64]> v_7_cast_fp16 = slice_by_index(begin = v_7_begin_0, end = v_7_end_0, end_mask = v_7_end_mask_0, squeeze_mask = v_7_squeeze_mask_0, x = qkv_7_cast_fp16)[name = tensor<string, []>("v_7_cast_fp16")];
            tensor<bool, []> attn_13_transpose_x_1 = const()[name = tensor<string, []>("attn_13_transpose_x_1"), val = tensor<bool, []>(false)];
            tensor<bool, []> attn_13_transpose_y_1 = const()[name = tensor<string, []>("attn_13_transpose_y_1"), val = tensor<bool, []>(true)];
            tensor<fp16, [1, 6, 1037, 1037]> attn_13_cast_fp16 = matmul(transpose_x = attn_13_transpose_x_1, transpose_y = attn_13_transpose_y_1, x = q_7_cast_fp16, y = k_7_cast_fp16)[name = tensor<string, []>("attn_13_cast_fp16")];
            tensor<fp16, [1, 6, 1037, 1037]> input_65_cast_fp16 = softmax(axis = var_26, x = attn_13_cast_fp16)[name = tensor<string, []>("input_65_cast_fp16")];
            tensor<bool, []> var_348_transpose_x_0 = const()[name = tensor<string, []>("op_348_transpose_x_0"), val = tensor<bool, []>(false)];
            tensor<bool, []> var_348_transpose_y_0 = const()[name = tensor<string, []>("op_348_transpose_y_0"), val = tensor<bool, []>(false)];
            tensor<fp16, [1, 6, 1037, 64]> var_348_cast_fp16 = matmul(transpose_x = var_348_transpose_x_0, transpose_y = var_348_transpose_y_0, x = input_65_cast_fp16, y = v_7_cast_fp16)[name = tensor<string, []>("op_348_cast_fp16")];
            tensor<int32, [4]> var_349_perm_0 = const()[name = tensor<string, []>("op_349_perm_0"), val = tensor<int32, [4]>([0, 2, 1, 3])];
            tensor<int32, [3]> var_350 = const()[name = tensor<string, []>("op_350"), val = tensor<int32, [3]>([1, 1037, 384])];
            tensor<fp16, [1, 1037, 6, 64]> var_349_cast_fp16 = transpose(perm = var_349_perm_0, x = var_348_cast_fp16)[name = tensor<string, []>("transpose_20")];
            tensor<fp16, [1, 1037, 384]> input_67_cast_fp16 = reshape(shape = var_350, x = var_349_cast_fp16)[name = tensor<string, []>("input_67_cast_fp16")];
            tensor<fp16, [384, 384]> model_pretrained_blocks_3_attn_proj_weight_to_fp16 = const()[name = tensor<string, []>("model_pretrained_blocks_3_attn_proj_weight_to_fp16"), val = tensor<fp16, [384, 384]>(BLOBFILE(path = tensor<string, []>("@model_path/weights/weight.bin"), offset = tensor<uint64, []>(13047744)))];
            tensor<fp16, [384]> model_pretrained_blocks_3_attn_proj_bias_to_fp16 = const()[name = tensor<string, []>("model_pretrained_blocks_3_attn_proj_bias_to_fp16"), val = tensor<fp16, [384]>(BLOBFILE(path = tensor<string, []>("@model_path/weights/weight.bin"), offset = tensor<uint64, []>(13342720)))];
            tensor<fp16, [1, 1037, 384]> linear_13_cast_fp16 = linear(bias = model_pretrained_blocks_3_attn_proj_bias_to_fp16, weight = model_pretrained_blocks_3_attn_proj_weight_to_fp16, x = input_67_cast_fp16)[name = tensor<string, []>("linear_13_cast_fp16")];
            tensor<fp16, [384]> model_pretrained_blocks_3_ls1_gamma_to_fp16 = const()[name = tensor<string, []>("model_pretrained_blocks_3_ls1_gamma_to_fp16"), val = tensor<fp16, [384]>(BLOBFILE(path = tensor<string, []>("@model_path/weights/weight.bin"), offset = tensor<uint64, []>(13343552)))];
            tensor<fp16, [1, 1037, 384]> var_357_cast_fp16 = mul(x = linear_13_cast_fp16, y = model_pretrained_blocks_3_ls1_gamma_to_fp16)[name = tensor<string, []>("op_357_cast_fp16")];
            tensor<fp16, [1, 1037, 384]> input_71_cast_fp16 = add(x = input_63_cast_fp16, y = var_357_cast_fp16)[name = tensor<string, []>("input_71_cast_fp16")];
            tensor<int32, [1]> input_73_axes_0 = const()[name = tensor<string, []>("input_73_axes_0"), val = tensor<int32, [1]>([-1])];
            tensor<fp16, [384]> model_pretrained_blocks_3_norm2_weight_to_fp16 = const()[name = tensor<string, []>("model_pretrained_blocks_3_norm2_weight_to_fp16"), val = tensor<fp16, [384]>(BLOBFILE(path = tensor<string, []>("@model_path/weights/weight.bin"), offset = tensor<uint64, []>(13344384)))];
            tensor<fp16, [384]> model_pretrained_blocks_3_norm2_bias_to_fp16 = const()[name = tensor<string, []>("model_pretrained_blocks_3_norm2_bias_to_fp16"), val = tensor<fp16, [384]>(BLOBFILE(path = tensor<string, []>("@model_path/weights/weight.bin"), offset = tensor<uint64, []>(13345216)))];
            tensor<fp16, [1, 1037, 384]> input_73_cast_fp16 = layer_norm(axes = input_73_axes_0, beta = model_pretrained_blocks_3_norm2_bias_to_fp16, epsilon = var_8_to_fp16, gamma = model_pretrained_blocks_3_norm2_weight_to_fp16, x = input_71_cast_fp16)[name = tensor<string, []>("input_73_cast_fp16")];
            tensor<fp16, [1536, 384]> model_pretrained_blocks_3_mlp_fc1_weight_to_fp16 = const()[name = tensor<string, []>("model_pretrained_blocks_3_mlp_fc1_weight_to_fp16"), val = tensor<fp16, [1536, 384]>(BLOBFILE(path = tensor<string, []>("@model_path/weights/weight.bin"), offset = tensor<uint64, []>(13346048)))];
            tensor<fp16, [1536]> model_pretrained_blocks_3_mlp_fc1_bias_to_fp16 = const()[name = tensor<string, []>("model_pretrained_blocks_3_mlp_fc1_bias_to_fp16"), val = tensor<fp16, [1536]>(BLOBFILE(path = tensor<string, []>("@model_path/weights/weight.bin"), offset = tensor<uint64, []>(14525760)))];
            tensor<fp16, [1, 1037, 1536]> linear_14_cast_fp16 = linear(bias = model_pretrained_blocks_3_mlp_fc1_bias_to_fp16, weight = model_pretrained_blocks_3_mlp_fc1_weight_to_fp16, x = input_73_cast_fp16)[name = tensor<string, []>("linear_14_cast_fp16")];
            tensor<string, []> input_77_mode_0 = const()[name = tensor<string, []>("input_77_mode_0"), val = tensor<string, []>("EXACT")];
            tensor<fp16, [1, 1037, 1536]> input_77_cast_fp16 = gelu(mode = input_77_mode_0, x = linear_14_cast_fp16)[name = tensor<string, []>("input_77_cast_fp16")];
            tensor<fp16, [384, 1536]> model_pretrained_blocks_3_mlp_fc2_weight_to_fp16 = const()[name = tensor<string, []>("model_pretrained_blocks_3_mlp_fc2_weight_to_fp16"), val = tensor<fp16, [384, 1536]>(BLOBFILE(path = tensor<string, []>("@model_path/weights/weight.bin"), offset = tensor<uint64, []>(14528896)))];
            tensor<fp16, [384]> model_pretrained_blocks_3_mlp_fc2_bias_to_fp16 = const()[name = tensor<string, []>("model_pretrained_blocks_3_mlp_fc2_bias_to_fp16"), val = tensor<fp16, [384]>(BLOBFILE(path = tensor<string, []>("@model_path/weights/weight.bin"), offset = tensor<uint64, []>(15708608)))];
            tensor<fp16, [1, 1037, 384]> linear_15_cast_fp16 = linear(bias = model_pretrained_blocks_3_mlp_fc2_bias_to_fp16, weight = model_pretrained_blocks_3_mlp_fc2_weight_to_fp16, x = input_77_cast_fp16)[name = tensor<string, []>("linear_15_cast_fp16")];
            tensor<fp16, [384]> model_pretrained_blocks_3_ls2_gamma_to_fp16 = const()[name = tensor<string, []>("model_pretrained_blocks_3_ls2_gamma_to_fp16"), val = tensor<fp16, [384]>(BLOBFILE(path = tensor<string, []>("@model_path/weights/weight.bin"), offset = tensor<uint64, []>(15709440)))];
            tensor<fp16, [1, 1037, 384]> var_375_cast_fp16 = mul(x = linear_15_cast_fp16, y = model_pretrained_blocks_3_ls2_gamma_to_fp16)[name = tensor<string, []>("op_375_cast_fp16")];
            tensor<fp16, [1, 1037, 384]> input_83_cast_fp16 = add(x = input_71_cast_fp16, y = var_375_cast_fp16)[name = tensor<string, []>("input_83_cast_fp16")];
            tensor<int32, [1]> x_33_axes_0 = const()[name = tensor<string, []>("x_33_axes_0"), val = tensor<int32, [1]>([-1])];
            tensor<fp16, [384]> model_pretrained_blocks_4_norm1_weight_to_fp16 = const()[name = tensor<string, []>("model_pretrained_blocks_4_norm1_weight_to_fp16"), val = tensor<fp16, [384]>(BLOBFILE(path = tensor<string, []>("@model_path/weights/weight.bin"), offset = tensor<uint64, []>(15710272)))];
            tensor<fp16, [384]> model_pretrained_blocks_4_norm1_bias_to_fp16 = const()[name = tensor<string, []>("model_pretrained_blocks_4_norm1_bias_to_fp16"), val = tensor<fp16, [384]>(BLOBFILE(path = tensor<string, []>("@model_path/weights/weight.bin"), offset = tensor<uint64, []>(15711104)))];
            tensor<fp16, [1, 1037, 384]> x_33_cast_fp16 = layer_norm(axes = x_33_axes_0, beta = model_pretrained_blocks_4_norm1_bias_to_fp16, epsilon = var_8_to_fp16, gamma = model_pretrained_blocks_4_norm1_weight_to_fp16, x = input_83_cast_fp16)[name = tensor<string, []>("x_33_cast_fp16")];
            tensor<fp16, [1152, 384]> model_pretrained_blocks_4_attn_qkv_weight_to_fp16 = const()[name = tensor<string, []>("model_pretrained_blocks_4_attn_qkv_weight_to_fp16"), val = tensor<fp16, [1152, 384]>(BLOBFILE(path = tensor<string, []>("@model_path/weights/weight.bin"), offset = tensor<uint64, []>(15711936)))];
            tensor<fp16, [1152]> model_pretrained_blocks_4_attn_qkv_bias_to_fp16 = const()[name = tensor<string, []>("model_pretrained_blocks_4_attn_qkv_bias_to_fp16"), val = tensor<fp16, [1152]>(BLOBFILE(path = tensor<string, []>("@model_path/weights/weight.bin"), offset = tensor<uint64, []>(16596736)))];
            tensor<fp16, [1, 1037, 1152]> linear_16_cast_fp16 = linear(bias = model_pretrained_blocks_4_attn_qkv_bias_to_fp16, weight = model_pretrained_blocks_4_attn_qkv_weight_to_fp16, x = x_33_cast_fp16)[name = tensor<string, []>("linear_16_cast_fp16")];
            tensor<int32, [5]> var_398 = const()[name = tensor<string, []>("op_398"), val = tensor<int32, [5]>([1, 1037, 3, 6, 64])];
            tensor<fp16, [1, 1037, 3, 6, 64]> var_399_cast_fp16 = reshape(shape = var_398, x = linear_16_cast_fp16)[name = tensor<string, []>("op_399_cast_fp16")];
            tensor<int32, [5]> var_400 = const()[name = tensor<string, []>("op_400"), val = tensor<int32, [5]>([2, 0, 3, 1, 4])];
            tensor<int32, [5]> var_402_begin_0 = const()[name = tensor<string, []>("op_402_begin_0"), val = tensor<int32, [5]>([0, 0, 0, 0, 0])];
            tensor<int32, [5]> var_402_end_0 = const()[name = tensor<string, []>("op_402_end_0"), val = tensor<int32, [5]>([1, 1, 6, 1037, 64])];
            tensor<bool, [5]> var_402_end_mask_0 = const()[name = tensor<string, []>("op_402_end_mask_0"), val = tensor<bool, [5]>([false, true, true, true, true])];
            tensor<bool, [5]> var_402_squeeze_mask_0 = const()[name = tensor<string, []>("op_402_squeeze_mask_0"), val = tensor<bool, [5]>([true, false, false, false, false])];
            tensor<fp16, [3, 1, 6, 1037, 64]> qkv_9_cast_fp16 = transpose(perm = var_400, x = var_399_cast_fp16)[name = tensor<string, []>("transpose_19")];
            tensor<fp16, [1, 6, 1037, 64]> var_402_cast_fp16 = slice_by_index(begin = var_402_begin_0, end = var_402_end_0, end_mask = var_402_end_mask_0, squeeze_mask = var_402_squeeze_mask_0, x = qkv_9_cast_fp16)[name = tensor<string, []>("op_402_cast_fp16")];
            tensor<fp16, []> var_403_to_fp16 = const()[name = tensor<string, []>("op_403_to_fp16"), val = tensor<fp16, []>(0x1p-3)];
            tensor<fp16, [1, 6, 1037, 64]> q_9_cast_fp16 = mul(x = var_402_cast_fp16, y = var_403_to_fp16)[name = tensor<string, []>("q_9_cast_fp16")];
            tensor<int32, [5]> k_9_begin_0 = const()[name = tensor<string, []>("k_9_begin_0"), val = tensor<int32, [5]>([1, 0, 0, 0, 0])];
            tensor<int32, [5]> k_9_end_0 = const()[name = tensor<string, []>("k_9_end_0"), val = tensor<int32, [5]>([2, 1, 6, 1037, 64])];
            tensor<bool, [5]> k_9_end_mask_0 = const()[name = tensor<string, []>("k_9_end_mask_0"), val = tensor<bool, [5]>([false, true, true, true, true])];
            tensor<bool, [5]> k_9_squeeze_mask_0 = const()[name = tensor<string, []>("k_9_squeeze_mask_0"), val = tensor<bool, [5]>([true, false, false, false, false])];
            tensor<fp16, [1, 6, 1037, 64]> k_9_cast_fp16 = slice_by_index(begin = k_9_begin_0, end = k_9_end_0, end_mask = k_9_end_mask_0, squeeze_mask = k_9_squeeze_mask_0, x = qkv_9_cast_fp16)[name = tensor<string, []>("k_9_cast_fp16")];
            tensor<int32, [5]> v_9_begin_0 = const()[name = tensor<string, []>("v_9_begin_0"), val = tensor<int32, [5]>([2, 0, 0, 0, 0])];
            tensor<int32, [5]> v_9_end_0 = const()[name = tensor<string, []>("v_9_end_0"), val = tensor<int32, [5]>([3, 1, 6, 1037, 64])];
            tensor<bool, [5]> v_9_end_mask_0 = const()[name = tensor<string, []>("v_9_end_mask_0"), val = tensor<bool, [5]>([false, true, true, true, true])];
            tensor<bool, [5]> v_9_squeeze_mask_0 = const()[name = tensor<string, []>("v_9_squeeze_mask_0"), val = tensor<bool, [5]>([true, false, false, false, false])];
            tensor<fp16, [1, 6, 1037, 64]> v_9_cast_fp16 = slice_by_index(begin = v_9_begin_0, end = v_9_end_0, end_mask = v_9_end_mask_0, squeeze_mask = v_9_squeeze_mask_0, x = qkv_9_cast_fp16)[name = tensor<string, []>("v_9_cast_fp16")];
            tensor<bool, []> attn_17_transpose_x_1 = const()[name = tensor<string, []>("attn_17_transpose_x_1"), val = tensor<bool, []>(false)];
            tensor<bool, []> attn_17_transpose_y_1 = const()[name = tensor<string, []>("attn_17_transpose_y_1"), val = tensor<bool, []>(true)];
            tensor<fp16, [1, 6, 1037, 1037]> attn_17_cast_fp16 = matmul(transpose_x = attn_17_transpose_x_1, transpose_y = attn_17_transpose_y_1, x = q_9_cast_fp16, y = k_9_cast_fp16)[name = tensor<string, []>("attn_17_cast_fp16")];
            tensor<fp16, [1, 6, 1037, 1037]> input_85_cast_fp16 = softmax(axis = var_26, x = attn_17_cast_fp16)[name = tensor<string, []>("input_85_cast_fp16")];
            tensor<bool, []> var_411_transpose_x_0 = const()[name = tensor<string, []>("op_411_transpose_x_0"), val = tensor<bool, []>(false)];
            tensor<bool, []> var_411_transpose_y_0 = const()[name = tensor<string, []>("op_411_transpose_y_0"), val = tensor<bool, []>(false)];
            tensor<fp16, [1, 6, 1037, 64]> var_411_cast_fp16 = matmul(transpose_x = var_411_transpose_x_0, transpose_y = var_411_transpose_y_0, x = input_85_cast_fp16, y = v_9_cast_fp16)[name = tensor<string, []>("op_411_cast_fp16")];
            tensor<int32, [4]> var_412_perm_0 = const()[name = tensor<string, []>("op_412_perm_0"), val = tensor<int32, [4]>([0, 2, 1, 3])];
            tensor<int32, [3]> var_413 = const()[name = tensor<string, []>("op_413"), val = tensor<int32, [3]>([1, 1037, 384])];
            tensor<fp16, [1, 1037, 6, 64]> var_412_cast_fp16 = transpose(perm = var_412_perm_0, x = var_411_cast_fp16)[name = tensor<string, []>("transpose_18")];
            tensor<fp16, [1, 1037, 384]> input_87_cast_fp16 = reshape(shape = var_413, x = var_412_cast_fp16)[name = tensor<string, []>("input_87_cast_fp16")];
            tensor<fp16, [384, 384]> model_pretrained_blocks_4_attn_proj_weight_to_fp16 = const()[name = tensor<string, []>("model_pretrained_blocks_4_attn_proj_weight_to_fp16"), val = tensor<fp16, [384, 384]>(BLOBFILE(path = tensor<string, []>("@model_path/weights/weight.bin"), offset = tensor<uint64, []>(16599104)))];
            tensor<fp16, [384]> model_pretrained_blocks_4_attn_proj_bias_to_fp16 = const()[name = tensor<string, []>("model_pretrained_blocks_4_attn_proj_bias_to_fp16"), val = tensor<fp16, [384]>(BLOBFILE(path = tensor<string, []>("@model_path/weights/weight.bin"), offset = tensor<uint64, []>(16894080)))];
            tensor<fp16, [1, 1037, 384]> linear_17_cast_fp16 = linear(bias = model_pretrained_blocks_4_attn_proj_bias_to_fp16, weight = model_pretrained_blocks_4_attn_proj_weight_to_fp16, x = input_87_cast_fp16)[name = tensor<string, []>("linear_17_cast_fp16")];
            tensor<fp16, [384]> model_pretrained_blocks_4_ls1_gamma_to_fp16 = const()[name = tensor<string, []>("model_pretrained_blocks_4_ls1_gamma_to_fp16"), val = tensor<fp16, [384]>(BLOBFILE(path = tensor<string, []>("@model_path/weights/weight.bin"), offset = tensor<uint64, []>(16894912)))];
            tensor<fp16, [1, 1037, 384]> var_420_cast_fp16 = mul(x = linear_17_cast_fp16, y = model_pretrained_blocks_4_ls1_gamma_to_fp16)[name = tensor<string, []>("op_420_cast_fp16")];
            tensor<fp16, [1, 1037, 384]> input_91_cast_fp16 = add(x = input_83_cast_fp16, y = var_420_cast_fp16)[name = tensor<string, []>("input_91_cast_fp16")];
            tensor<int32, [1]> input_93_axes_0 = const()[name = tensor<string, []>("input_93_axes_0"), val = tensor<int32, [1]>([-1])];
            tensor<fp16, [384]> model_pretrained_blocks_4_norm2_weight_to_fp16 = const()[name = tensor<string, []>("model_pretrained_blocks_4_norm2_weight_to_fp16"), val = tensor<fp16, [384]>(BLOBFILE(path = tensor<string, []>("@model_path/weights/weight.bin"), offset = tensor<uint64, []>(16895744)))];
            tensor<fp16, [384]> model_pretrained_blocks_4_norm2_bias_to_fp16 = const()[name = tensor<string, []>("model_pretrained_blocks_4_norm2_bias_to_fp16"), val = tensor<fp16, [384]>(BLOBFILE(path = tensor<string, []>("@model_path/weights/weight.bin"), offset = tensor<uint64, []>(16896576)))];
            tensor<fp16, [1, 1037, 384]> input_93_cast_fp16 = layer_norm(axes = input_93_axes_0, beta = model_pretrained_blocks_4_norm2_bias_to_fp16, epsilon = var_8_to_fp16, gamma = model_pretrained_blocks_4_norm2_weight_to_fp16, x = input_91_cast_fp16)[name = tensor<string, []>("input_93_cast_fp16")];
            tensor<fp16, [1536, 384]> model_pretrained_blocks_4_mlp_fc1_weight_to_fp16 = const()[name = tensor<string, []>("model_pretrained_blocks_4_mlp_fc1_weight_to_fp16"), val = tensor<fp16, [1536, 384]>(BLOBFILE(path = tensor<string, []>("@model_path/weights/weight.bin"), offset = tensor<uint64, []>(16897408)))];
            tensor<fp16, [1536]> model_pretrained_blocks_4_mlp_fc1_bias_to_fp16 = const()[name = tensor<string, []>("model_pretrained_blocks_4_mlp_fc1_bias_to_fp16"), val = tensor<fp16, [1536]>(BLOBFILE(path = tensor<string, []>("@model_path/weights/weight.bin"), offset = tensor<uint64, []>(18077120)))];
            tensor<fp16, [1, 1037, 1536]> linear_18_cast_fp16 = linear(bias = model_pretrained_blocks_4_mlp_fc1_bias_to_fp16, weight = model_pretrained_blocks_4_mlp_fc1_weight_to_fp16, x = input_93_cast_fp16)[name = tensor<string, []>("linear_18_cast_fp16")];
            tensor<string, []> input_97_mode_0 = const()[name = tensor<string, []>("input_97_mode_0"), val = tensor<string, []>("EXACT")];
            tensor<fp16, [1, 1037, 1536]> input_97_cast_fp16 = gelu(mode = input_97_mode_0, x = linear_18_cast_fp16)[name = tensor<string, []>("input_97_cast_fp16")];
            tensor<fp16, [384, 1536]> model_pretrained_blocks_4_mlp_fc2_weight_to_fp16 = const()[name = tensor<string, []>("model_pretrained_blocks_4_mlp_fc2_weight_to_fp16"), val = tensor<fp16, [384, 1536]>(BLOBFILE(path = tensor<string, []>("@model_path/weights/weight.bin"), offset = tensor<uint64, []>(18080256)))];
            tensor<fp16, [384]> model_pretrained_blocks_4_mlp_fc2_bias_to_fp16 = const()[name = tensor<string, []>("model_pretrained_blocks_4_mlp_fc2_bias_to_fp16"), val = tensor<fp16, [384]>(BLOBFILE(path = tensor<string, []>("@model_path/weights/weight.bin"), offset = tensor<uint64, []>(19259968)))];
            tensor<fp16, [1, 1037, 384]> linear_19_cast_fp16 = linear(bias = model_pretrained_blocks_4_mlp_fc2_bias_to_fp16, weight = model_pretrained_blocks_4_mlp_fc2_weight_to_fp16, x = input_97_cast_fp16)[name = tensor<string, []>("linear_19_cast_fp16")];
            tensor<fp16, [384]> model_pretrained_blocks_4_ls2_gamma_to_fp16 = const()[name = tensor<string, []>("model_pretrained_blocks_4_ls2_gamma_to_fp16"), val = tensor<fp16, [384]>(BLOBFILE(path = tensor<string, []>("@model_path/weights/weight.bin"), offset = tensor<uint64, []>(19260800)))];
            tensor<fp16, [1, 1037, 384]> var_438_cast_fp16 = mul(x = linear_19_cast_fp16, y = model_pretrained_blocks_4_ls2_gamma_to_fp16)[name = tensor<string, []>("op_438_cast_fp16")];
            tensor<fp16, [1, 1037, 384]> input_103_cast_fp16 = add(x = input_91_cast_fp16, y = var_438_cast_fp16)[name = tensor<string, []>("input_103_cast_fp16")];
            tensor<int32, [1]> x_39_axes_0 = const()[name = tensor<string, []>("x_39_axes_0"), val = tensor<int32, [1]>([-1])];
            tensor<fp16, [384]> model_pretrained_blocks_5_norm1_weight_to_fp16 = const()[name = tensor<string, []>("model_pretrained_blocks_5_norm1_weight_to_fp16"), val = tensor<fp16, [384]>(BLOBFILE(path = tensor<string, []>("@model_path/weights/weight.bin"), offset = tensor<uint64, []>(19261632)))];
            tensor<fp16, [384]> model_pretrained_blocks_5_norm1_bias_to_fp16 = const()[name = tensor<string, []>("model_pretrained_blocks_5_norm1_bias_to_fp16"), val = tensor<fp16, [384]>(BLOBFILE(path = tensor<string, []>("@model_path/weights/weight.bin"), offset = tensor<uint64, []>(19262464)))];
            tensor<fp16, [1, 1037, 384]> x_39_cast_fp16 = layer_norm(axes = x_39_axes_0, beta = model_pretrained_blocks_5_norm1_bias_to_fp16, epsilon = var_8_to_fp16, gamma = model_pretrained_blocks_5_norm1_weight_to_fp16, x = input_103_cast_fp16)[name = tensor<string, []>("x_39_cast_fp16")];
            tensor<fp16, [1152, 384]> model_pretrained_blocks_5_attn_qkv_weight_to_fp16 = const()[name = tensor<string, []>("model_pretrained_blocks_5_attn_qkv_weight_to_fp16"), val = tensor<fp16, [1152, 384]>(BLOBFILE(path = tensor<string, []>("@model_path/weights/weight.bin"), offset = tensor<uint64, []>(19263296)))];
            tensor<fp16, [1152]> model_pretrained_blocks_5_attn_qkv_bias_to_fp16 = const()[name = tensor<string, []>("model_pretrained_blocks_5_attn_qkv_bias_to_fp16"), val = tensor<fp16, [1152]>(BLOBFILE(path = tensor<string, []>("@model_path/weights/weight.bin"), offset = tensor<uint64, []>(20148096)))];
            tensor<fp16, [1, 1037, 1152]> linear_20_cast_fp16 = linear(bias = model_pretrained_blocks_5_attn_qkv_bias_to_fp16, weight = model_pretrained_blocks_5_attn_qkv_weight_to_fp16, x = x_39_cast_fp16)[name = tensor<string, []>("linear_20_cast_fp16")];
            tensor<int32, [5]> var_461 = const()[name = tensor<string, []>("op_461"), val = tensor<int32, [5]>([1, 1037, 3, 6, 64])];
            tensor<fp16, [1, 1037, 3, 6, 64]> var_462_cast_fp16 = reshape(shape = var_461, x = linear_20_cast_fp16)[name = tensor<string, []>("op_462_cast_fp16")];
            tensor<int32, [5]> var_463 = const()[name = tensor<string, []>("op_463"), val = tensor<int32, [5]>([2, 0, 3, 1, 4])];
            tensor<int32, [5]> var_465_begin_0 = const()[name = tensor<string, []>("op_465_begin_0"), val = tensor<int32, [5]>([0, 0, 0, 0, 0])];
            tensor<int32, [5]> var_465_end_0 = const()[name = tensor<string, []>("op_465_end_0"), val = tensor<int32, [5]>([1, 1, 6, 1037, 64])];
            tensor<bool, [5]> var_465_end_mask_0 = const()[name = tensor<string, []>("op_465_end_mask_0"), val = tensor<bool, [5]>([false, true, true, true, true])];
            tensor<bool, [5]> var_465_squeeze_mask_0 = const()[name = tensor<string, []>("op_465_squeeze_mask_0"), val = tensor<bool, [5]>([true, false, false, false, false])];
            tensor<fp16, [3, 1, 6, 1037, 64]> qkv_11_cast_fp16 = transpose(perm = var_463, x = var_462_cast_fp16)[name = tensor<string, []>("transpose_17")];
            tensor<fp16, [1, 6, 1037, 64]> var_465_cast_fp16 = slice_by_index(begin = var_465_begin_0, end = var_465_end_0, end_mask = var_465_end_mask_0, squeeze_mask = var_465_squeeze_mask_0, x = qkv_11_cast_fp16)[name = tensor<string, []>("op_465_cast_fp16")];
            tensor<fp16, []> var_466_to_fp16 = const()[name = tensor<string, []>("op_466_to_fp16"), val = tensor<fp16, []>(0x1p-3)];
            tensor<fp16, [1, 6, 1037, 64]> q_11_cast_fp16 = mul(x = var_465_cast_fp16, y = var_466_to_fp16)[name = tensor<string, []>("q_11_cast_fp16")];
            tensor<int32, [5]> k_11_begin_0 = const()[name = tensor<string, []>("k_11_begin_0"), val = tensor<int32, [5]>([1, 0, 0, 0, 0])];
            tensor<int32, [5]> k_11_end_0 = const()[name = tensor<string, []>("k_11_end_0"), val = tensor<int32, [5]>([2, 1, 6, 1037, 64])];
            tensor<bool, [5]> k_11_end_mask_0 = const()[name = tensor<string, []>("k_11_end_mask_0"), val = tensor<bool, [5]>([false, true, true, true, true])];
            tensor<bool, [5]> k_11_squeeze_mask_0 = const()[name = tensor<string, []>("k_11_squeeze_mask_0"), val = tensor<bool, [5]>([true, false, false, false, false])];
            tensor<fp16, [1, 6, 1037, 64]> k_11_cast_fp16 = slice_by_index(begin = k_11_begin_0, end = k_11_end_0, end_mask = k_11_end_mask_0, squeeze_mask = k_11_squeeze_mask_0, x = qkv_11_cast_fp16)[name = tensor<string, []>("k_11_cast_fp16")];
            tensor<int32, [5]> v_11_begin_0 = const()[name = tensor<string, []>("v_11_begin_0"), val = tensor<int32, [5]>([2, 0, 0, 0, 0])];
            tensor<int32, [5]> v_11_end_0 = const()[name = tensor<string, []>("v_11_end_0"), val = tensor<int32, [5]>([3, 1, 6, 1037, 64])];
            tensor<bool, [5]> v_11_end_mask_0 = const()[name = tensor<string, []>("v_11_end_mask_0"), val = tensor<bool, [5]>([false, true, true, true, true])];
            tensor<bool, [5]> v_11_squeeze_mask_0 = const()[name = tensor<string, []>("v_11_squeeze_mask_0"), val = tensor<bool, [5]>([true, false, false, false, false])];
            tensor<fp16, [1, 6, 1037, 64]> v_11_cast_fp16 = slice_by_index(begin = v_11_begin_0, end = v_11_end_0, end_mask = v_11_end_mask_0, squeeze_mask = v_11_squeeze_mask_0, x = qkv_11_cast_fp16)[name = tensor<string, []>("v_11_cast_fp16")];
            tensor<bool, []> attn_21_transpose_x_1 = const()[name = tensor<string, []>("attn_21_transpose_x_1"), val = tensor<bool, []>(false)];
            tensor<bool, []> attn_21_transpose_y_1 = const()[name = tensor<string, []>("attn_21_transpose_y_1"), val = tensor<bool, []>(true)];
            tensor<fp16, [1, 6, 1037, 1037]> attn_21_cast_fp16 = matmul(transpose_x = attn_21_transpose_x_1, transpose_y = attn_21_transpose_y_1, x = q_11_cast_fp16, y = k_11_cast_fp16)[name = tensor<string, []>("attn_21_cast_fp16")];
            tensor<fp16, [1, 6, 1037, 1037]> input_105_cast_fp16 = softmax(axis = var_26, x = attn_21_cast_fp16)[name = tensor<string, []>("input_105_cast_fp16")];
            tensor<bool, []> var_474_transpose_x_0 = const()[name = tensor<string, []>("op_474_transpose_x_0"), val = tensor<bool, []>(false)];
            tensor<bool, []> var_474_transpose_y_0 = const()[name = tensor<string, []>("op_474_transpose_y_0"), val = tensor<bool, []>(false)];
            tensor<fp16, [1, 6, 1037, 64]> var_474_cast_fp16 = matmul(transpose_x = var_474_transpose_x_0, transpose_y = var_474_transpose_y_0, x = input_105_cast_fp16, y = v_11_cast_fp16)[name = tensor<string, []>("op_474_cast_fp16")];
            tensor<int32, [4]> var_475_perm_0 = const()[name = tensor<string, []>("op_475_perm_0"), val = tensor<int32, [4]>([0, 2, 1, 3])];
            tensor<int32, [3]> var_476 = const()[name = tensor<string, []>("op_476"), val = tensor<int32, [3]>([1, 1037, 384])];
            tensor<fp16, [1, 1037, 6, 64]> var_475_cast_fp16 = transpose(perm = var_475_perm_0, x = var_474_cast_fp16)[name = tensor<string, []>("transpose_16")];
            tensor<fp16, [1, 1037, 384]> input_107_cast_fp16 = reshape(shape = var_476, x = var_475_cast_fp16)[name = tensor<string, []>("input_107_cast_fp16")];
            tensor<fp16, [384, 384]> model_pretrained_blocks_5_attn_proj_weight_to_fp16 = const()[name = tensor<string, []>("model_pretrained_blocks_5_attn_proj_weight_to_fp16"), val = tensor<fp16, [384, 384]>(BLOBFILE(path = tensor<string, []>("@model_path/weights/weight.bin"), offset = tensor<uint64, []>(20150464)))];
            tensor<fp16, [384]> model_pretrained_blocks_5_attn_proj_bias_to_fp16 = const()[name = tensor<string, []>("model_pretrained_blocks_5_attn_proj_bias_to_fp16"), val = tensor<fp16, [384]>(BLOBFILE(path = tensor<string, []>("@model_path/weights/weight.bin"), offset = tensor<uint64, []>(20445440)))];
            tensor<fp16, [1, 1037, 384]> linear_21_cast_fp16 = linear(bias = model_pretrained_blocks_5_attn_proj_bias_to_fp16, weight = model_pretrained_blocks_5_attn_proj_weight_to_fp16, x = input_107_cast_fp16)[name = tensor<string, []>("linear_21_cast_fp16")];
            tensor<fp16, [384]> model_pretrained_blocks_5_ls1_gamma_to_fp16 = const()[name = tensor<string, []>("model_pretrained_blocks_5_ls1_gamma_to_fp16"), val = tensor<fp16, [384]>(BLOBFILE(path = tensor<string, []>("@model_path/weights/weight.bin"), offset = tensor<uint64, []>(20446272)))];
            tensor<fp16, [1, 1037, 384]> var_483_cast_fp16 = mul(x = linear_21_cast_fp16, y = model_pretrained_blocks_5_ls1_gamma_to_fp16)[name = tensor<string, []>("op_483_cast_fp16")];
            tensor<fp16, [1, 1037, 384]> input_111_cast_fp16 = add(x = input_103_cast_fp16, y = var_483_cast_fp16)[name = tensor<string, []>("input_111_cast_fp16")];
            tensor<int32, [1]> input_113_axes_0 = const()[name = tensor<string, []>("input_113_axes_0"), val = tensor<int32, [1]>([-1])];
            tensor<fp16, [384]> model_pretrained_blocks_5_norm2_weight_to_fp16 = const()[name = tensor<string, []>("model_pretrained_blocks_5_norm2_weight_to_fp16"), val = tensor<fp16, [384]>(BLOBFILE(path = tensor<string, []>("@model_path/weights/weight.bin"), offset = tensor<uint64, []>(20447104)))];
            tensor<fp16, [384]> model_pretrained_blocks_5_norm2_bias_to_fp16 = const()[name = tensor<string, []>("model_pretrained_blocks_5_norm2_bias_to_fp16"), val = tensor<fp16, [384]>(BLOBFILE(path = tensor<string, []>("@model_path/weights/weight.bin"), offset = tensor<uint64, []>(20447936)))];
            tensor<fp16, [1, 1037, 384]> input_113_cast_fp16 = layer_norm(axes = input_113_axes_0, beta = model_pretrained_blocks_5_norm2_bias_to_fp16, epsilon = var_8_to_fp16, gamma = model_pretrained_blocks_5_norm2_weight_to_fp16, x = input_111_cast_fp16)[name = tensor<string, []>("input_113_cast_fp16")];
            tensor<fp16, [1536, 384]> model_pretrained_blocks_5_mlp_fc1_weight_to_fp16 = const()[name = tensor<string, []>("model_pretrained_blocks_5_mlp_fc1_weight_to_fp16"), val = tensor<fp16, [1536, 384]>(BLOBFILE(path = tensor<string, []>("@model_path/weights/weight.bin"), offset = tensor<uint64, []>(20448768)))];
            tensor<fp16, [1536]> model_pretrained_blocks_5_mlp_fc1_bias_to_fp16 = const()[name = tensor<string, []>("model_pretrained_blocks_5_mlp_fc1_bias_to_fp16"), val = tensor<fp16, [1536]>(BLOBFILE(path = tensor<string, []>("@model_path/weights/weight.bin"), offset = tensor<uint64, []>(21628480)))];
            tensor<fp16, [1, 1037, 1536]> linear_22_cast_fp16 = linear(bias = model_pretrained_blocks_5_mlp_fc1_bias_to_fp16, weight = model_pretrained_blocks_5_mlp_fc1_weight_to_fp16, x = input_113_cast_fp16)[name = tensor<string, []>("linear_22_cast_fp16")];
            tensor<string, []> input_117_mode_0 = const()[name = tensor<string, []>("input_117_mode_0"), val = tensor<string, []>("EXACT")];
            tensor<fp16, [1, 1037, 1536]> input_117_cast_fp16 = gelu(mode = input_117_mode_0, x = linear_22_cast_fp16)[name = tensor<string, []>("input_117_cast_fp16")];
            tensor<fp16, [384, 1536]> model_pretrained_blocks_5_mlp_fc2_weight_to_fp16 = const()[name = tensor<string, []>("model_pretrained_blocks_5_mlp_fc2_weight_to_fp16"), val = tensor<fp16, [384, 1536]>(BLOBFILE(path = tensor<string, []>("@model_path/weights/weight.bin"), offset = tensor<uint64, []>(21631616)))];
            tensor<fp16, [384]> model_pretrained_blocks_5_mlp_fc2_bias_to_fp16 = const()[name = tensor<string, []>("model_pretrained_blocks_5_mlp_fc2_bias_to_fp16"), val = tensor<fp16, [384]>(BLOBFILE(path = tensor<string, []>("@model_path/weights/weight.bin"), offset = tensor<uint64, []>(22811328)))];
            tensor<fp16, [1, 1037, 384]> linear_23_cast_fp16 = linear(bias = model_pretrained_blocks_5_mlp_fc2_bias_to_fp16, weight = model_pretrained_blocks_5_mlp_fc2_weight_to_fp16, x = input_117_cast_fp16)[name = tensor<string, []>("linear_23_cast_fp16")];
            tensor<fp16, [384]> model_pretrained_blocks_5_ls2_gamma_to_fp16 = const()[name = tensor<string, []>("model_pretrained_blocks_5_ls2_gamma_to_fp16"), val = tensor<fp16, [384]>(BLOBFILE(path = tensor<string, []>("@model_path/weights/weight.bin"), offset = tensor<uint64, []>(22812160)))];
            tensor<fp16, [1, 1037, 384]> var_501_cast_fp16 = mul(x = linear_23_cast_fp16, y = model_pretrained_blocks_5_ls2_gamma_to_fp16)[name = tensor<string, []>("op_501_cast_fp16")];
            tensor<fp16, [1, 1037, 384]> input_123_cast_fp16 = add(x = input_111_cast_fp16, y = var_501_cast_fp16)[name = tensor<string, []>("input_123_cast_fp16")];
            tensor<int32, [1]> x_45_axes_0 = const()[name = tensor<string, []>("x_45_axes_0"), val = tensor<int32, [1]>([-1])];
            tensor<fp16, [384]> model_pretrained_blocks_6_norm1_weight_to_fp16 = const()[name = tensor<string, []>("model_pretrained_blocks_6_norm1_weight_to_fp16"), val = tensor<fp16, [384]>(BLOBFILE(path = tensor<string, []>("@model_path/weights/weight.bin"), offset = tensor<uint64, []>(22812992)))];
            tensor<fp16, [384]> model_pretrained_blocks_6_norm1_bias_to_fp16 = const()[name = tensor<string, []>("model_pretrained_blocks_6_norm1_bias_to_fp16"), val = tensor<fp16, [384]>(BLOBFILE(path = tensor<string, []>("@model_path/weights/weight.bin"), offset = tensor<uint64, []>(22813824)))];
            tensor<fp16, [1, 1037, 384]> x_45_cast_fp16 = layer_norm(axes = x_45_axes_0, beta = model_pretrained_blocks_6_norm1_bias_to_fp16, epsilon = var_8_to_fp16, gamma = model_pretrained_blocks_6_norm1_weight_to_fp16, x = input_123_cast_fp16)[name = tensor<string, []>("x_45_cast_fp16")];
            tensor<fp16, [1152, 384]> model_pretrained_blocks_6_attn_qkv_weight_to_fp16 = const()[name = tensor<string, []>("model_pretrained_blocks_6_attn_qkv_weight_to_fp16"), val = tensor<fp16, [1152, 384]>(BLOBFILE(path = tensor<string, []>("@model_path/weights/weight.bin"), offset = tensor<uint64, []>(22814656)))];
            tensor<fp16, [1152]> model_pretrained_blocks_6_attn_qkv_bias_to_fp16 = const()[name = tensor<string, []>("model_pretrained_blocks_6_attn_qkv_bias_to_fp16"), val = tensor<fp16, [1152]>(BLOBFILE(path = tensor<string, []>("@model_path/weights/weight.bin"), offset = tensor<uint64, []>(23699456)))];
            tensor<fp16, [1, 1037, 1152]> linear_24_cast_fp16 = linear(bias = model_pretrained_blocks_6_attn_qkv_bias_to_fp16, weight = model_pretrained_blocks_6_attn_qkv_weight_to_fp16, x = x_45_cast_fp16)[name = tensor<string, []>("linear_24_cast_fp16")];
            tensor<int32, [5]> var_524 = const()[name = tensor<string, []>("op_524"), val = tensor<int32, [5]>([1, 1037, 3, 6, 64])];
            tensor<fp16, [1, 1037, 3, 6, 64]> var_525_cast_fp16 = reshape(shape = var_524, x = linear_24_cast_fp16)[name = tensor<string, []>("op_525_cast_fp16")];
            tensor<int32, [5]> var_526 = const()[name = tensor<string, []>("op_526"), val = tensor<int32, [5]>([2, 0, 3, 1, 4])];
            tensor<int32, [5]> var_528_begin_0 = const()[name = tensor<string, []>("op_528_begin_0"), val = tensor<int32, [5]>([0, 0, 0, 0, 0])];
            tensor<int32, [5]> var_528_end_0 = const()[name = tensor<string, []>("op_528_end_0"), val = tensor<int32, [5]>([1, 1, 6, 1037, 64])];
            tensor<bool, [5]> var_528_end_mask_0 = const()[name = tensor<string, []>("op_528_end_mask_0"), val = tensor<bool, [5]>([false, true, true, true, true])];
            tensor<bool, [5]> var_528_squeeze_mask_0 = const()[name = tensor<string, []>("op_528_squeeze_mask_0"), val = tensor<bool, [5]>([true, false, false, false, false])];
            tensor<fp16, [3, 1, 6, 1037, 64]> qkv_13_cast_fp16 = transpose(perm = var_526, x = var_525_cast_fp16)[name = tensor<string, []>("transpose_15")];
            tensor<fp16, [1, 6, 1037, 64]> var_528_cast_fp16 = slice_by_index(begin = var_528_begin_0, end = var_528_end_0, end_mask = var_528_end_mask_0, squeeze_mask = var_528_squeeze_mask_0, x = qkv_13_cast_fp16)[name = tensor<string, []>("op_528_cast_fp16")];
            tensor<fp16, []> var_529_to_fp16 = const()[name = tensor<string, []>("op_529_to_fp16"), val = tensor<fp16, []>(0x1p-3)];
            tensor<fp16, [1, 6, 1037, 64]> q_13_cast_fp16 = mul(x = var_528_cast_fp16, y = var_529_to_fp16)[name = tensor<string, []>("q_13_cast_fp16")];
            tensor<int32, [5]> k_13_begin_0 = const()[name = tensor<string, []>("k_13_begin_0"), val = tensor<int32, [5]>([1, 0, 0, 0, 0])];
            tensor<int32, [5]> k_13_end_0 = const()[name = tensor<string, []>("k_13_end_0"), val = tensor<int32, [5]>([2, 1, 6, 1037, 64])];
            tensor<bool, [5]> k_13_end_mask_0 = const()[name = tensor<string, []>("k_13_end_mask_0"), val = tensor<bool, [5]>([false, true, true, true, true])];
            tensor<bool, [5]> k_13_squeeze_mask_0 = const()[name = tensor<string, []>("k_13_squeeze_mask_0"), val = tensor<bool, [5]>([true, false, false, false, false])];
            tensor<fp16, [1, 6, 1037, 64]> k_13_cast_fp16 = slice_by_index(begin = k_13_begin_0, end = k_13_end_0, end_mask = k_13_end_mask_0, squeeze_mask = k_13_squeeze_mask_0, x = qkv_13_cast_fp16)[name = tensor<string, []>("k_13_cast_fp16")];
            tensor<int32, [5]> v_13_begin_0 = const()[name = tensor<string, []>("v_13_begin_0"), val = tensor<int32, [5]>([2, 0, 0, 0, 0])];
            tensor<int32, [5]> v_13_end_0 = const()[name = tensor<string, []>("v_13_end_0"), val = tensor<int32, [5]>([3, 1, 6, 1037, 64])];
            tensor<bool, [5]> v_13_end_mask_0 = const()[name = tensor<string, []>("v_13_end_mask_0"), val = tensor<bool, [5]>([false, true, true, true, true])];
            tensor<bool, [5]> v_13_squeeze_mask_0 = const()[name = tensor<string, []>("v_13_squeeze_mask_0"), val = tensor<bool, [5]>([true, false, false, false, false])];
            tensor<fp16, [1, 6, 1037, 64]> v_13_cast_fp16 = slice_by_index(begin = v_13_begin_0, end = v_13_end_0, end_mask = v_13_end_mask_0, squeeze_mask = v_13_squeeze_mask_0, x = qkv_13_cast_fp16)[name = tensor<string, []>("v_13_cast_fp16")];
            tensor<bool, []> attn_25_transpose_x_1 = const()[name = tensor<string, []>("attn_25_transpose_x_1"), val = tensor<bool, []>(false)];
            tensor<bool, []> attn_25_transpose_y_1 = const()[name = tensor<string, []>("attn_25_transpose_y_1"), val = tensor<bool, []>(true)];
            tensor<fp16, [1, 6, 1037, 1037]> attn_25_cast_fp16 = matmul(transpose_x = attn_25_transpose_x_1, transpose_y = attn_25_transpose_y_1, x = q_13_cast_fp16, y = k_13_cast_fp16)[name = tensor<string, []>("attn_25_cast_fp16")];
            tensor<fp16, [1, 6, 1037, 1037]> input_125_cast_fp16 = softmax(axis = var_26, x = attn_25_cast_fp16)[name = tensor<string, []>("input_125_cast_fp16")];
            tensor<bool, []> var_537_transpose_x_0 = const()[name = tensor<string, []>("op_537_transpose_x_0"), val = tensor<bool, []>(false)];
            tensor<bool, []> var_537_transpose_y_0 = const()[name = tensor<string, []>("op_537_transpose_y_0"), val = tensor<bool, []>(false)];
            tensor<fp16, [1, 6, 1037, 64]> var_537_cast_fp16 = matmul(transpose_x = var_537_transpose_x_0, transpose_y = var_537_transpose_y_0, x = input_125_cast_fp16, y = v_13_cast_fp16)[name = tensor<string, []>("op_537_cast_fp16")];
            tensor<int32, [4]> var_538_perm_0 = const()[name = tensor<string, []>("op_538_perm_0"), val = tensor<int32, [4]>([0, 2, 1, 3])];
            tensor<int32, [3]> var_539 = const()[name = tensor<string, []>("op_539"), val = tensor<int32, [3]>([1, 1037, 384])];
            tensor<fp16, [1, 1037, 6, 64]> var_538_cast_fp16 = transpose(perm = var_538_perm_0, x = var_537_cast_fp16)[name = tensor<string, []>("transpose_14")];
            tensor<fp16, [1, 1037, 384]> input_127_cast_fp16 = reshape(shape = var_539, x = var_538_cast_fp16)[name = tensor<string, []>("input_127_cast_fp16")];
            tensor<fp16, [384, 384]> model_pretrained_blocks_6_attn_proj_weight_to_fp16 = const()[name = tensor<string, []>("model_pretrained_blocks_6_attn_proj_weight_to_fp16"), val = tensor<fp16, [384, 384]>(BLOBFILE(path = tensor<string, []>("@model_path/weights/weight.bin"), offset = tensor<uint64, []>(23701824)))];
            tensor<fp16, [384]> model_pretrained_blocks_6_attn_proj_bias_to_fp16 = const()[name = tensor<string, []>("model_pretrained_blocks_6_attn_proj_bias_to_fp16"), val = tensor<fp16, [384]>(BLOBFILE(path = tensor<string, []>("@model_path/weights/weight.bin"), offset = tensor<uint64, []>(23996800)))];
            tensor<fp16, [1, 1037, 384]> linear_25_cast_fp16 = linear(bias = model_pretrained_blocks_6_attn_proj_bias_to_fp16, weight = model_pretrained_blocks_6_attn_proj_weight_to_fp16, x = input_127_cast_fp16)[name = tensor<string, []>("linear_25_cast_fp16")];
            tensor<fp16, [384]> model_pretrained_blocks_6_ls1_gamma_to_fp16 = const()[name = tensor<string, []>("model_pretrained_blocks_6_ls1_gamma_to_fp16"), val = tensor<fp16, [384]>(BLOBFILE(path = tensor<string, []>("@model_path/weights/weight.bin"), offset = tensor<uint64, []>(23997632)))];
            tensor<fp16, [1, 1037, 384]> var_546_cast_fp16 = mul(x = linear_25_cast_fp16, y = model_pretrained_blocks_6_ls1_gamma_to_fp16)[name = tensor<string, []>("op_546_cast_fp16")];
            tensor<fp16, [1, 1037, 384]> input_131_cast_fp16 = add(x = input_123_cast_fp16, y = var_546_cast_fp16)[name = tensor<string, []>("input_131_cast_fp16")];
            tensor<int32, [1]> input_133_axes_0 = const()[name = tensor<string, []>("input_133_axes_0"), val = tensor<int32, [1]>([-1])];
            tensor<fp16, [384]> model_pretrained_blocks_6_norm2_weight_to_fp16 = const()[name = tensor<string, []>("model_pretrained_blocks_6_norm2_weight_to_fp16"), val = tensor<fp16, [384]>(BLOBFILE(path = tensor<string, []>("@model_path/weights/weight.bin"), offset = tensor<uint64, []>(23998464)))];
            tensor<fp16, [384]> model_pretrained_blocks_6_norm2_bias_to_fp16 = const()[name = tensor<string, []>("model_pretrained_blocks_6_norm2_bias_to_fp16"), val = tensor<fp16, [384]>(BLOBFILE(path = tensor<string, []>("@model_path/weights/weight.bin"), offset = tensor<uint64, []>(23999296)))];
            tensor<fp16, [1, 1037, 384]> input_133_cast_fp16 = layer_norm(axes = input_133_axes_0, beta = model_pretrained_blocks_6_norm2_bias_to_fp16, epsilon = var_8_to_fp16, gamma = model_pretrained_blocks_6_norm2_weight_to_fp16, x = input_131_cast_fp16)[name = tensor<string, []>("input_133_cast_fp16")];
            tensor<fp16, [1536, 384]> model_pretrained_blocks_6_mlp_fc1_weight_to_fp16 = const()[name = tensor<string, []>("model_pretrained_blocks_6_mlp_fc1_weight_to_fp16"), val = tensor<fp16, [1536, 384]>(BLOBFILE(path = tensor<string, []>("@model_path/weights/weight.bin"), offset = tensor<uint64, []>(24000128)))];
            tensor<fp16, [1536]> model_pretrained_blocks_6_mlp_fc1_bias_to_fp16 = const()[name = tensor<string, []>("model_pretrained_blocks_6_mlp_fc1_bias_to_fp16"), val = tensor<fp16, [1536]>(BLOBFILE(path = tensor<string, []>("@model_path/weights/weight.bin"), offset = tensor<uint64, []>(25179840)))];
            tensor<fp16, [1, 1037, 1536]> linear_26_cast_fp16 = linear(bias = model_pretrained_blocks_6_mlp_fc1_bias_to_fp16, weight = model_pretrained_blocks_6_mlp_fc1_weight_to_fp16, x = input_133_cast_fp16)[name = tensor<string, []>("linear_26_cast_fp16")];
            tensor<string, []> input_137_mode_0 = const()[name = tensor<string, []>("input_137_mode_0"), val = tensor<string, []>("EXACT")];
            tensor<fp16, [1, 1037, 1536]> input_137_cast_fp16 = gelu(mode = input_137_mode_0, x = linear_26_cast_fp16)[name = tensor<string, []>("input_137_cast_fp16")];
            tensor<fp16, [384, 1536]> model_pretrained_blocks_6_mlp_fc2_weight_to_fp16 = const()[name = tensor<string, []>("model_pretrained_blocks_6_mlp_fc2_weight_to_fp16"), val = tensor<fp16, [384, 1536]>(BLOBFILE(path = tensor<string, []>("@model_path/weights/weight.bin"), offset = tensor<uint64, []>(25182976)))];
            tensor<fp16, [384]> model_pretrained_blocks_6_mlp_fc2_bias_to_fp16 = const()[name = tensor<string, []>("model_pretrained_blocks_6_mlp_fc2_bias_to_fp16"), val = tensor<fp16, [384]>(BLOBFILE(path = tensor<string, []>("@model_path/weights/weight.bin"), offset = tensor<uint64, []>(26362688)))];
            tensor<fp16, [1, 1037, 384]> linear_27_cast_fp16 = linear(bias = model_pretrained_blocks_6_mlp_fc2_bias_to_fp16, weight = model_pretrained_blocks_6_mlp_fc2_weight_to_fp16, x = input_137_cast_fp16)[name = tensor<string, []>("linear_27_cast_fp16")];
            tensor<fp16, [384]> model_pretrained_blocks_6_ls2_gamma_to_fp16 = const()[name = tensor<string, []>("model_pretrained_blocks_6_ls2_gamma_to_fp16"), val = tensor<fp16, [384]>(BLOBFILE(path = tensor<string, []>("@model_path/weights/weight.bin"), offset = tensor<uint64, []>(26363520)))];
            tensor<fp16, [1, 1037, 384]> var_564_cast_fp16 = mul(x = linear_27_cast_fp16, y = model_pretrained_blocks_6_ls2_gamma_to_fp16)[name = tensor<string, []>("op_564_cast_fp16")];
            tensor<fp16, [1, 1037, 384]> input_143_cast_fp16 = add(x = input_131_cast_fp16, y = var_564_cast_fp16)[name = tensor<string, []>("input_143_cast_fp16")];
            tensor<int32, [1]> x_51_axes_0 = const()[name = tensor<string, []>("x_51_axes_0"), val = tensor<int32, [1]>([-1])];
            tensor<fp16, [384]> model_pretrained_blocks_7_norm1_weight_to_fp16 = const()[name = tensor<string, []>("model_pretrained_blocks_7_norm1_weight_to_fp16"), val = tensor<fp16, [384]>(BLOBFILE(path = tensor<string, []>("@model_path/weights/weight.bin"), offset = tensor<uint64, []>(26364352)))];
            tensor<fp16, [384]> model_pretrained_blocks_7_norm1_bias_to_fp16 = const()[name = tensor<string, []>("model_pretrained_blocks_7_norm1_bias_to_fp16"), val = tensor<fp16, [384]>(BLOBFILE(path = tensor<string, []>("@model_path/weights/weight.bin"), offset = tensor<uint64, []>(26365184)))];
            tensor<fp16, [1, 1037, 384]> x_51_cast_fp16 = layer_norm(axes = x_51_axes_0, beta = model_pretrained_blocks_7_norm1_bias_to_fp16, epsilon = var_8_to_fp16, gamma = model_pretrained_blocks_7_norm1_weight_to_fp16, x = input_143_cast_fp16)[name = tensor<string, []>("x_51_cast_fp16")];
            tensor<fp16, [1152, 384]> model_pretrained_blocks_7_attn_qkv_weight_to_fp16 = const()[name = tensor<string, []>("model_pretrained_blocks_7_attn_qkv_weight_to_fp16"), val = tensor<fp16, [1152, 384]>(BLOBFILE(path = tensor<string, []>("@model_path/weights/weight.bin"), offset = tensor<uint64, []>(26366016)))];
            tensor<fp16, [1152]> model_pretrained_blocks_7_attn_qkv_bias_to_fp16 = const()[name = tensor<string, []>("model_pretrained_blocks_7_attn_qkv_bias_to_fp16"), val = tensor<fp16, [1152]>(BLOBFILE(path = tensor<string, []>("@model_path/weights/weight.bin"), offset = tensor<uint64, []>(27250816)))];
            tensor<fp16, [1, 1037, 1152]> linear_28_cast_fp16 = linear(bias = model_pretrained_blocks_7_attn_qkv_bias_to_fp16, weight = model_pretrained_blocks_7_attn_qkv_weight_to_fp16, x = x_51_cast_fp16)[name = tensor<string, []>("linear_28_cast_fp16")];
            tensor<int32, [5]> var_587 = const()[name = tensor<string, []>("op_587"), val = tensor<int32, [5]>([1, 1037, 3, 6, 64])];
            tensor<fp16, [1, 1037, 3, 6, 64]> var_588_cast_fp16 = reshape(shape = var_587, x = linear_28_cast_fp16)[name = tensor<string, []>("op_588_cast_fp16")];
            tensor<int32, [5]> var_589 = const()[name = tensor<string, []>("op_589"), val = tensor<int32, [5]>([2, 0, 3, 1, 4])];
            tensor<int32, [5]> var_591_begin_0 = const()[name = tensor<string, []>("op_591_begin_0"), val = tensor<int32, [5]>([0, 0, 0, 0, 0])];
            tensor<int32, [5]> var_591_end_0 = const()[name = tensor<string, []>("op_591_end_0"), val = tensor<int32, [5]>([1, 1, 6, 1037, 64])];
            tensor<bool, [5]> var_591_end_mask_0 = const()[name = tensor<string, []>("op_591_end_mask_0"), val = tensor<bool, [5]>([false, true, true, true, true])];
            tensor<bool, [5]> var_591_squeeze_mask_0 = const()[name = tensor<string, []>("op_591_squeeze_mask_0"), val = tensor<bool, [5]>([true, false, false, false, false])];
            tensor<fp16, [3, 1, 6, 1037, 64]> qkv_15_cast_fp16 = transpose(perm = var_589, x = var_588_cast_fp16)[name = tensor<string, []>("transpose_13")];
            tensor<fp16, [1, 6, 1037, 64]> var_591_cast_fp16 = slice_by_index(begin = var_591_begin_0, end = var_591_end_0, end_mask = var_591_end_mask_0, squeeze_mask = var_591_squeeze_mask_0, x = qkv_15_cast_fp16)[name = tensor<string, []>("op_591_cast_fp16")];
            tensor<fp16, []> var_592_to_fp16 = const()[name = tensor<string, []>("op_592_to_fp16"), val = tensor<fp16, []>(0x1p-3)];
            tensor<fp16, [1, 6, 1037, 64]> q_15_cast_fp16 = mul(x = var_591_cast_fp16, y = var_592_to_fp16)[name = tensor<string, []>("q_15_cast_fp16")];
            tensor<int32, [5]> k_15_begin_0 = const()[name = tensor<string, []>("k_15_begin_0"), val = tensor<int32, [5]>([1, 0, 0, 0, 0])];
            tensor<int32, [5]> k_15_end_0 = const()[name = tensor<string, []>("k_15_end_0"), val = tensor<int32, [5]>([2, 1, 6, 1037, 64])];
            tensor<bool, [5]> k_15_end_mask_0 = const()[name = tensor<string, []>("k_15_end_mask_0"), val = tensor<bool, [5]>([false, true, true, true, true])];
            tensor<bool, [5]> k_15_squeeze_mask_0 = const()[name = tensor<string, []>("k_15_squeeze_mask_0"), val = tensor<bool, [5]>([true, false, false, false, false])];
            tensor<fp16, [1, 6, 1037, 64]> k_15_cast_fp16 = slice_by_index(begin = k_15_begin_0, end = k_15_end_0, end_mask = k_15_end_mask_0, squeeze_mask = k_15_squeeze_mask_0, x = qkv_15_cast_fp16)[name = tensor<string, []>("k_15_cast_fp16")];
            tensor<int32, [5]> v_15_begin_0 = const()[name = tensor<string, []>("v_15_begin_0"), val = tensor<int32, [5]>([2, 0, 0, 0, 0])];
            tensor<int32, [5]> v_15_end_0 = const()[name = tensor<string, []>("v_15_end_0"), val = tensor<int32, [5]>([3, 1, 6, 1037, 64])];
            tensor<bool, [5]> v_15_end_mask_0 = const()[name = tensor<string, []>("v_15_end_mask_0"), val = tensor<bool, [5]>([false, true, true, true, true])];
            tensor<bool, [5]> v_15_squeeze_mask_0 = const()[name = tensor<string, []>("v_15_squeeze_mask_0"), val = tensor<bool, [5]>([true, false, false, false, false])];
            tensor<fp16, [1, 6, 1037, 64]> v_15_cast_fp16 = slice_by_index(begin = v_15_begin_0, end = v_15_end_0, end_mask = v_15_end_mask_0, squeeze_mask = v_15_squeeze_mask_0, x = qkv_15_cast_fp16)[name = tensor<string, []>("v_15_cast_fp16")];
            tensor<bool, []> attn_29_transpose_x_1 = const()[name = tensor<string, []>("attn_29_transpose_x_1"), val = tensor<bool, []>(false)];
            tensor<bool, []> attn_29_transpose_y_1 = const()[name = tensor<string, []>("attn_29_transpose_y_1"), val = tensor<bool, []>(true)];
            tensor<fp16, [1, 6, 1037, 1037]> attn_29_cast_fp16 = matmul(transpose_x = attn_29_transpose_x_1, transpose_y = attn_29_transpose_y_1, x = q_15_cast_fp16, y = k_15_cast_fp16)[name = tensor<string, []>("attn_29_cast_fp16")];
            tensor<fp16, [1, 6, 1037, 1037]> input_145_cast_fp16 = softmax(axis = var_26, x = attn_29_cast_fp16)[name = tensor<string, []>("input_145_cast_fp16")];
            tensor<bool, []> var_600_transpose_x_0 = const()[name = tensor<string, []>("op_600_transpose_x_0"), val = tensor<bool, []>(false)];
            tensor<bool, []> var_600_transpose_y_0 = const()[name = tensor<string, []>("op_600_transpose_y_0"), val = tensor<bool, []>(false)];
            tensor<fp16, [1, 6, 1037, 64]> var_600_cast_fp16 = matmul(transpose_x = var_600_transpose_x_0, transpose_y = var_600_transpose_y_0, x = input_145_cast_fp16, y = v_15_cast_fp16)[name = tensor<string, []>("op_600_cast_fp16")];
            tensor<int32, [4]> var_601_perm_0 = const()[name = tensor<string, []>("op_601_perm_0"), val = tensor<int32, [4]>([0, 2, 1, 3])];
            tensor<int32, [3]> var_602 = const()[name = tensor<string, []>("op_602"), val = tensor<int32, [3]>([1, 1037, 384])];
            tensor<fp16, [1, 1037, 6, 64]> var_601_cast_fp16 = transpose(perm = var_601_perm_0, x = var_600_cast_fp16)[name = tensor<string, []>("transpose_12")];
            tensor<fp16, [1, 1037, 384]> input_147_cast_fp16 = reshape(shape = var_602, x = var_601_cast_fp16)[name = tensor<string, []>("input_147_cast_fp16")];
            tensor<fp16, [384, 384]> model_pretrained_blocks_7_attn_proj_weight_to_fp16 = const()[name = tensor<string, []>("model_pretrained_blocks_7_attn_proj_weight_to_fp16"), val = tensor<fp16, [384, 384]>(BLOBFILE(path = tensor<string, []>("@model_path/weights/weight.bin"), offset = tensor<uint64, []>(27253184)))];
            tensor<fp16, [384]> model_pretrained_blocks_7_attn_proj_bias_to_fp16 = const()[name = tensor<string, []>("model_pretrained_blocks_7_attn_proj_bias_to_fp16"), val = tensor<fp16, [384]>(BLOBFILE(path = tensor<string, []>("@model_path/weights/weight.bin"), offset = tensor<uint64, []>(27548160)))];
            tensor<fp16, [1, 1037, 384]> linear_29_cast_fp16 = linear(bias = model_pretrained_blocks_7_attn_proj_bias_to_fp16, weight = model_pretrained_blocks_7_attn_proj_weight_to_fp16, x = input_147_cast_fp16)[name = tensor<string, []>("linear_29_cast_fp16")];
            tensor<fp16, [384]> model_pretrained_blocks_7_ls1_gamma_to_fp16 = const()[name = tensor<string, []>("model_pretrained_blocks_7_ls1_gamma_to_fp16"), val = tensor<fp16, [384]>(BLOBFILE(path = tensor<string, []>("@model_path/weights/weight.bin"), offset = tensor<uint64, []>(27548992)))];
            tensor<fp16, [1, 1037, 384]> var_609_cast_fp16 = mul(x = linear_29_cast_fp16, y = model_pretrained_blocks_7_ls1_gamma_to_fp16)[name = tensor<string, []>("op_609_cast_fp16")];
            tensor<fp16, [1, 1037, 384]> input_151_cast_fp16 = add(x = input_143_cast_fp16, y = var_609_cast_fp16)[name = tensor<string, []>("input_151_cast_fp16")];
            tensor<int32, [1]> input_153_axes_0 = const()[name = tensor<string, []>("input_153_axes_0"), val = tensor<int32, [1]>([-1])];
            tensor<fp16, [384]> model_pretrained_blocks_7_norm2_weight_to_fp16 = const()[name = tensor<string, []>("model_pretrained_blocks_7_norm2_weight_to_fp16"), val = tensor<fp16, [384]>(BLOBFILE(path = tensor<string, []>("@model_path/weights/weight.bin"), offset = tensor<uint64, []>(27549824)))];
            tensor<fp16, [384]> model_pretrained_blocks_7_norm2_bias_to_fp16 = const()[name = tensor<string, []>("model_pretrained_blocks_7_norm2_bias_to_fp16"), val = tensor<fp16, [384]>(BLOBFILE(path = tensor<string, []>("@model_path/weights/weight.bin"), offset = tensor<uint64, []>(27550656)))];
            tensor<fp16, [1, 1037, 384]> input_153_cast_fp16 = layer_norm(axes = input_153_axes_0, beta = model_pretrained_blocks_7_norm2_bias_to_fp16, epsilon = var_8_to_fp16, gamma = model_pretrained_blocks_7_norm2_weight_to_fp16, x = input_151_cast_fp16)[name = tensor<string, []>("input_153_cast_fp16")];
            tensor<fp16, [1536, 384]> model_pretrained_blocks_7_mlp_fc1_weight_to_fp16 = const()[name = tensor<string, []>("model_pretrained_blocks_7_mlp_fc1_weight_to_fp16"), val = tensor<fp16, [1536, 384]>(BLOBFILE(path = tensor<string, []>("@model_path/weights/weight.bin"), offset = tensor<uint64, []>(27551488)))];
            tensor<fp16, [1536]> model_pretrained_blocks_7_mlp_fc1_bias_to_fp16 = const()[name = tensor<string, []>("model_pretrained_blocks_7_mlp_fc1_bias_to_fp16"), val = tensor<fp16, [1536]>(BLOBFILE(path = tensor<string, []>("@model_path/weights/weight.bin"), offset = tensor<uint64, []>(28731200)))];
            tensor<fp16, [1, 1037, 1536]> linear_30_cast_fp16 = linear(bias = model_pretrained_blocks_7_mlp_fc1_bias_to_fp16, weight = model_pretrained_blocks_7_mlp_fc1_weight_to_fp16, x = input_153_cast_fp16)[name = tensor<string, []>("linear_30_cast_fp16")];
            tensor<string, []> input_157_mode_0 = const()[name = tensor<string, []>("input_157_mode_0"), val = tensor<string, []>("EXACT")];
            tensor<fp16, [1, 1037, 1536]> input_157_cast_fp16 = gelu(mode = input_157_mode_0, x = linear_30_cast_fp16)[name = tensor<string, []>("input_157_cast_fp16")];
            tensor<fp16, [384, 1536]> model_pretrained_blocks_7_mlp_fc2_weight_to_fp16 = const()[name = tensor<string, []>("model_pretrained_blocks_7_mlp_fc2_weight_to_fp16"), val = tensor<fp16, [384, 1536]>(BLOBFILE(path = tensor<string, []>("@model_path/weights/weight.bin"), offset = tensor<uint64, []>(28734336)))];
            tensor<fp16, [384]> model_pretrained_blocks_7_mlp_fc2_bias_to_fp16 = const()[name = tensor<string, []>("model_pretrained_blocks_7_mlp_fc2_bias_to_fp16"), val = tensor<fp16, [384]>(BLOBFILE(path = tensor<string, []>("@model_path/weights/weight.bin"), offset = tensor<uint64, []>(29914048)))];
            tensor<fp16, [1, 1037, 384]> linear_31_cast_fp16 = linear(bias = model_pretrained_blocks_7_mlp_fc2_bias_to_fp16, weight = model_pretrained_blocks_7_mlp_fc2_weight_to_fp16, x = input_157_cast_fp16)[name = tensor<string, []>("linear_31_cast_fp16")];
            tensor<fp16, [384]> model_pretrained_blocks_7_ls2_gamma_to_fp16 = const()[name = tensor<string, []>("model_pretrained_blocks_7_ls2_gamma_to_fp16"), val = tensor<fp16, [384]>(BLOBFILE(path = tensor<string, []>("@model_path/weights/weight.bin"), offset = tensor<uint64, []>(29914880)))];
            tensor<fp16, [1, 1037, 384]> var_627_cast_fp16 = mul(x = linear_31_cast_fp16, y = model_pretrained_blocks_7_ls2_gamma_to_fp16)[name = tensor<string, []>("op_627_cast_fp16")];
            tensor<fp16, [1, 1037, 384]> input_163_cast_fp16 = add(x = input_151_cast_fp16, y = var_627_cast_fp16)[name = tensor<string, []>("input_163_cast_fp16")];
            tensor<int32, [1]> x_57_axes_0 = const()[name = tensor<string, []>("x_57_axes_0"), val = tensor<int32, [1]>([-1])];
            tensor<fp16, [384]> model_pretrained_blocks_8_norm1_weight_to_fp16 = const()[name = tensor<string, []>("model_pretrained_blocks_8_norm1_weight_to_fp16"), val = tensor<fp16, [384]>(BLOBFILE(path = tensor<string, []>("@model_path/weights/weight.bin"), offset = tensor<uint64, []>(29915712)))];
            tensor<fp16, [384]> model_pretrained_blocks_8_norm1_bias_to_fp16 = const()[name = tensor<string, []>("model_pretrained_blocks_8_norm1_bias_to_fp16"), val = tensor<fp16, [384]>(BLOBFILE(path = tensor<string, []>("@model_path/weights/weight.bin"), offset = tensor<uint64, []>(29916544)))];
            tensor<fp16, [1, 1037, 384]> x_57_cast_fp16 = layer_norm(axes = x_57_axes_0, beta = model_pretrained_blocks_8_norm1_bias_to_fp16, epsilon = var_8_to_fp16, gamma = model_pretrained_blocks_8_norm1_weight_to_fp16, x = input_163_cast_fp16)[name = tensor<string, []>("x_57_cast_fp16")];
            tensor<fp16, [1152, 384]> model_pretrained_blocks_8_attn_qkv_weight_to_fp16 = const()[name = tensor<string, []>("model_pretrained_blocks_8_attn_qkv_weight_to_fp16"), val = tensor<fp16, [1152, 384]>(BLOBFILE(path = tensor<string, []>("@model_path/weights/weight.bin"), offset = tensor<uint64, []>(29917376)))];
            tensor<fp16, [1152]> model_pretrained_blocks_8_attn_qkv_bias_to_fp16 = const()[name = tensor<string, []>("model_pretrained_blocks_8_attn_qkv_bias_to_fp16"), val = tensor<fp16, [1152]>(BLOBFILE(path = tensor<string, []>("@model_path/weights/weight.bin"), offset = tensor<uint64, []>(30802176)))];
            tensor<fp16, [1, 1037, 1152]> linear_32_cast_fp16 = linear(bias = model_pretrained_blocks_8_attn_qkv_bias_to_fp16, weight = model_pretrained_blocks_8_attn_qkv_weight_to_fp16, x = x_57_cast_fp16)[name = tensor<string, []>("linear_32_cast_fp16")];
            tensor<int32, [5]> var_650 = const()[name = tensor<string, []>("op_650"), val = tensor<int32, [5]>([1, 1037, 3, 6, 64])];
            tensor<fp16, [1, 1037, 3, 6, 64]> var_651_cast_fp16 = reshape(shape = var_650, x = linear_32_cast_fp16)[name = tensor<string, []>("op_651_cast_fp16")];
            tensor<int32, [5]> var_652 = const()[name = tensor<string, []>("op_652"), val = tensor<int32, [5]>([2, 0, 3, 1, 4])];
            tensor<int32, [5]> var_654_begin_0 = const()[name = tensor<string, []>("op_654_begin_0"), val = tensor<int32, [5]>([0, 0, 0, 0, 0])];
            tensor<int32, [5]> var_654_end_0 = const()[name = tensor<string, []>("op_654_end_0"), val = tensor<int32, [5]>([1, 1, 6, 1037, 64])];
            tensor<bool, [5]> var_654_end_mask_0 = const()[name = tensor<string, []>("op_654_end_mask_0"), val = tensor<bool, [5]>([false, true, true, true, true])];
            tensor<bool, [5]> var_654_squeeze_mask_0 = const()[name = tensor<string, []>("op_654_squeeze_mask_0"), val = tensor<bool, [5]>([true, false, false, false, false])];
            tensor<fp16, [3, 1, 6, 1037, 64]> qkv_17_cast_fp16 = transpose(perm = var_652, x = var_651_cast_fp16)[name = tensor<string, []>("transpose_11")];
            tensor<fp16, [1, 6, 1037, 64]> var_654_cast_fp16 = slice_by_index(begin = var_654_begin_0, end = var_654_end_0, end_mask = var_654_end_mask_0, squeeze_mask = var_654_squeeze_mask_0, x = qkv_17_cast_fp16)[name = tensor<string, []>("op_654_cast_fp16")];
            tensor<fp16, []> var_655_to_fp16 = const()[name = tensor<string, []>("op_655_to_fp16"), val = tensor<fp16, []>(0x1p-3)];
            tensor<fp16, [1, 6, 1037, 64]> q_17_cast_fp16 = mul(x = var_654_cast_fp16, y = var_655_to_fp16)[name = tensor<string, []>("q_17_cast_fp16")];
            tensor<int32, [5]> k_17_begin_0 = const()[name = tensor<string, []>("k_17_begin_0"), val = tensor<int32, [5]>([1, 0, 0, 0, 0])];
            tensor<int32, [5]> k_17_end_0 = const()[name = tensor<string, []>("k_17_end_0"), val = tensor<int32, [5]>([2, 1, 6, 1037, 64])];
            tensor<bool, [5]> k_17_end_mask_0 = const()[name = tensor<string, []>("k_17_end_mask_0"), val = tensor<bool, [5]>([false, true, true, true, true])];
            tensor<bool, [5]> k_17_squeeze_mask_0 = const()[name = tensor<string, []>("k_17_squeeze_mask_0"), val = tensor<bool, [5]>([true, false, false, false, false])];
            tensor<fp16, [1, 6, 1037, 64]> k_17_cast_fp16 = slice_by_index(begin = k_17_begin_0, end = k_17_end_0, end_mask = k_17_end_mask_0, squeeze_mask = k_17_squeeze_mask_0, x = qkv_17_cast_fp16)[name = tensor<string, []>("k_17_cast_fp16")];
            tensor<int32, [5]> v_17_begin_0 = const()[name = tensor<string, []>("v_17_begin_0"), val = tensor<int32, [5]>([2, 0, 0, 0, 0])];
            tensor<int32, [5]> v_17_end_0 = const()[name = tensor<string, []>("v_17_end_0"), val = tensor<int32, [5]>([3, 1, 6, 1037, 64])];
            tensor<bool, [5]> v_17_end_mask_0 = const()[name = tensor<string, []>("v_17_end_mask_0"), val = tensor<bool, [5]>([false, true, true, true, true])];
            tensor<bool, [5]> v_17_squeeze_mask_0 = const()[name = tensor<string, []>("v_17_squeeze_mask_0"), val = tensor<bool, [5]>([true, false, false, false, false])];
            tensor<fp16, [1, 6, 1037, 64]> v_17_cast_fp16 = slice_by_index(begin = v_17_begin_0, end = v_17_end_0, end_mask = v_17_end_mask_0, squeeze_mask = v_17_squeeze_mask_0, x = qkv_17_cast_fp16)[name = tensor<string, []>("v_17_cast_fp16")];
            tensor<bool, []> attn_33_transpose_x_1 = const()[name = tensor<string, []>("attn_33_transpose_x_1"), val = tensor<bool, []>(false)];
            tensor<bool, []> attn_33_transpose_y_1 = const()[name = tensor<string, []>("attn_33_transpose_y_1"), val = tensor<bool, []>(true)];
            tensor<fp16, [1, 6, 1037, 1037]> attn_33_cast_fp16 = matmul(transpose_x = attn_33_transpose_x_1, transpose_y = attn_33_transpose_y_1, x = q_17_cast_fp16, y = k_17_cast_fp16)[name = tensor<string, []>("attn_33_cast_fp16")];
            tensor<fp16, [1, 6, 1037, 1037]> input_165_cast_fp16 = softmax(axis = var_26, x = attn_33_cast_fp16)[name = tensor<string, []>("input_165_cast_fp16")];
            tensor<bool, []> var_663_transpose_x_0 = const()[name = tensor<string, []>("op_663_transpose_x_0"), val = tensor<bool, []>(false)];
            tensor<bool, []> var_663_transpose_y_0 = const()[name = tensor<string, []>("op_663_transpose_y_0"), val = tensor<bool, []>(false)];
            tensor<fp16, [1, 6, 1037, 64]> var_663_cast_fp16 = matmul(transpose_x = var_663_transpose_x_0, transpose_y = var_663_transpose_y_0, x = input_165_cast_fp16, y = v_17_cast_fp16)[name = tensor<string, []>("op_663_cast_fp16")];
            tensor<int32, [4]> var_664_perm_0 = const()[name = tensor<string, []>("op_664_perm_0"), val = tensor<int32, [4]>([0, 2, 1, 3])];
            tensor<int32, [3]> var_665 = const()[name = tensor<string, []>("op_665"), val = tensor<int32, [3]>([1, 1037, 384])];
            tensor<fp16, [1, 1037, 6, 64]> var_664_cast_fp16 = transpose(perm = var_664_perm_0, x = var_663_cast_fp16)[name = tensor<string, []>("transpose_10")];
            tensor<fp16, [1, 1037, 384]> input_167_cast_fp16 = reshape(shape = var_665, x = var_664_cast_fp16)[name = tensor<string, []>("input_167_cast_fp16")];
            tensor<fp16, [384, 384]> model_pretrained_blocks_8_attn_proj_weight_to_fp16 = const()[name = tensor<string, []>("model_pretrained_blocks_8_attn_proj_weight_to_fp16"), val = tensor<fp16, [384, 384]>(BLOBFILE(path = tensor<string, []>("@model_path/weights/weight.bin"), offset = tensor<uint64, []>(30804544)))];
            tensor<fp16, [384]> model_pretrained_blocks_8_attn_proj_bias_to_fp16 = const()[name = tensor<string, []>("model_pretrained_blocks_8_attn_proj_bias_to_fp16"), val = tensor<fp16, [384]>(BLOBFILE(path = tensor<string, []>("@model_path/weights/weight.bin"), offset = tensor<uint64, []>(31099520)))];
            tensor<fp16, [1, 1037, 384]> linear_33_cast_fp16 = linear(bias = model_pretrained_blocks_8_attn_proj_bias_to_fp16, weight = model_pretrained_blocks_8_attn_proj_weight_to_fp16, x = input_167_cast_fp16)[name = tensor<string, []>("linear_33_cast_fp16")];
            tensor<fp16, [384]> model_pretrained_blocks_8_ls1_gamma_to_fp16 = const()[name = tensor<string, []>("model_pretrained_blocks_8_ls1_gamma_to_fp16"), val = tensor<fp16, [384]>(BLOBFILE(path = tensor<string, []>("@model_path/weights/weight.bin"), offset = tensor<uint64, []>(31100352)))];
            tensor<fp16, [1, 1037, 384]> var_672_cast_fp16 = mul(x = linear_33_cast_fp16, y = model_pretrained_blocks_8_ls1_gamma_to_fp16)[name = tensor<string, []>("op_672_cast_fp16")];
            tensor<fp16, [1, 1037, 384]> input_171_cast_fp16 = add(x = input_163_cast_fp16, y = var_672_cast_fp16)[name = tensor<string, []>("input_171_cast_fp16")];
            tensor<int32, [1]> input_173_axes_0 = const()[name = tensor<string, []>("input_173_axes_0"), val = tensor<int32, [1]>([-1])];
            tensor<fp16, [384]> model_pretrained_blocks_8_norm2_weight_to_fp16 = const()[name = tensor<string, []>("model_pretrained_blocks_8_norm2_weight_to_fp16"), val = tensor<fp16, [384]>(BLOBFILE(path = tensor<string, []>("@model_path/weights/weight.bin"), offset = tensor<uint64, []>(31101184)))];
            tensor<fp16, [384]> model_pretrained_blocks_8_norm2_bias_to_fp16 = const()[name = tensor<string, []>("model_pretrained_blocks_8_norm2_bias_to_fp16"), val = tensor<fp16, [384]>(BLOBFILE(path = tensor<string, []>("@model_path/weights/weight.bin"), offset = tensor<uint64, []>(31102016)))];
            tensor<fp16, [1, 1037, 384]> input_173_cast_fp16 = layer_norm(axes = input_173_axes_0, beta = model_pretrained_blocks_8_norm2_bias_to_fp16, epsilon = var_8_to_fp16, gamma = model_pretrained_blocks_8_norm2_weight_to_fp16, x = input_171_cast_fp16)[name = tensor<string, []>("input_173_cast_fp16")];
            tensor<fp16, [1536, 384]> model_pretrained_blocks_8_mlp_fc1_weight_to_fp16 = const()[name = tensor<string, []>("model_pretrained_blocks_8_mlp_fc1_weight_to_fp16"), val = tensor<fp16, [1536, 384]>(BLOBFILE(path = tensor<string, []>("@model_path/weights/weight.bin"), offset = tensor<uint64, []>(31102848)))];
            tensor<fp16, [1536]> model_pretrained_blocks_8_mlp_fc1_bias_to_fp16 = const()[name = tensor<string, []>("model_pretrained_blocks_8_mlp_fc1_bias_to_fp16"), val = tensor<fp16, [1536]>(BLOBFILE(path = tensor<string, []>("@model_path/weights/weight.bin"), offset = tensor<uint64, []>(32282560)))];
            tensor<fp16, [1, 1037, 1536]> linear_34_cast_fp16 = linear(bias = model_pretrained_blocks_8_mlp_fc1_bias_to_fp16, weight = model_pretrained_blocks_8_mlp_fc1_weight_to_fp16, x = input_173_cast_fp16)[name = tensor<string, []>("linear_34_cast_fp16")];
            tensor<string, []> input_177_mode_0 = const()[name = tensor<string, []>("input_177_mode_0"), val = tensor<string, []>("EXACT")];
            tensor<fp16, [1, 1037, 1536]> input_177_cast_fp16 = gelu(mode = input_177_mode_0, x = linear_34_cast_fp16)[name = tensor<string, []>("input_177_cast_fp16")];
            tensor<fp16, [384, 1536]> model_pretrained_blocks_8_mlp_fc2_weight_to_fp16 = const()[name = tensor<string, []>("model_pretrained_blocks_8_mlp_fc2_weight_to_fp16"), val = tensor<fp16, [384, 1536]>(BLOBFILE(path = tensor<string, []>("@model_path/weights/weight.bin"), offset = tensor<uint64, []>(32285696)))];
            tensor<fp16, [384]> model_pretrained_blocks_8_mlp_fc2_bias_to_fp16 = const()[name = tensor<string, []>("model_pretrained_blocks_8_mlp_fc2_bias_to_fp16"), val = tensor<fp16, [384]>(BLOBFILE(path = tensor<string, []>("@model_path/weights/weight.bin"), offset = tensor<uint64, []>(33465408)))];
            tensor<fp16, [1, 1037, 384]> linear_35_cast_fp16 = linear(bias = model_pretrained_blocks_8_mlp_fc2_bias_to_fp16, weight = model_pretrained_blocks_8_mlp_fc2_weight_to_fp16, x = input_177_cast_fp16)[name = tensor<string, []>("linear_35_cast_fp16")];
            tensor<fp16, [384]> model_pretrained_blocks_8_ls2_gamma_to_fp16 = const()[name = tensor<string, []>("model_pretrained_blocks_8_ls2_gamma_to_fp16"), val = tensor<fp16, [384]>(BLOBFILE(path = tensor<string, []>("@model_path/weights/weight.bin"), offset = tensor<uint64, []>(33466240)))];
            tensor<fp16, [1, 1037, 384]> var_690_cast_fp16 = mul(x = linear_35_cast_fp16, y = model_pretrained_blocks_8_ls2_gamma_to_fp16)[name = tensor<string, []>("op_690_cast_fp16")];
            tensor<fp16, [1, 1037, 384]> input_183_cast_fp16 = add(x = input_171_cast_fp16, y = var_690_cast_fp16)[name = tensor<string, []>("input_183_cast_fp16")];
            tensor<int32, [1]> x_63_axes_0 = const()[name = tensor<string, []>("x_63_axes_0"), val = tensor<int32, [1]>([-1])];
            tensor<fp16, [384]> model_pretrained_blocks_9_norm1_weight_to_fp16 = const()[name = tensor<string, []>("model_pretrained_blocks_9_norm1_weight_to_fp16"), val = tensor<fp16, [384]>(BLOBFILE(path = tensor<string, []>("@model_path/weights/weight.bin"), offset = tensor<uint64, []>(33467072)))];
            tensor<fp16, [384]> model_pretrained_blocks_9_norm1_bias_to_fp16 = const()[name = tensor<string, []>("model_pretrained_blocks_9_norm1_bias_to_fp16"), val = tensor<fp16, [384]>(BLOBFILE(path = tensor<string, []>("@model_path/weights/weight.bin"), offset = tensor<uint64, []>(33467904)))];
            tensor<fp16, [1, 1037, 384]> x_63_cast_fp16 = layer_norm(axes = x_63_axes_0, beta = model_pretrained_blocks_9_norm1_bias_to_fp16, epsilon = var_8_to_fp16, gamma = model_pretrained_blocks_9_norm1_weight_to_fp16, x = input_183_cast_fp16)[name = tensor<string, []>("x_63_cast_fp16")];
            tensor<fp16, [1152, 384]> model_pretrained_blocks_9_attn_qkv_weight_to_fp16 = const()[name = tensor<string, []>("model_pretrained_blocks_9_attn_qkv_weight_to_fp16"), val = tensor<fp16, [1152, 384]>(BLOBFILE(path = tensor<string, []>("@model_path/weights/weight.bin"), offset = tensor<uint64, []>(33468736)))];
            tensor<fp16, [1152]> model_pretrained_blocks_9_attn_qkv_bias_to_fp16 = const()[name = tensor<string, []>("model_pretrained_blocks_9_attn_qkv_bias_to_fp16"), val = tensor<fp16, [1152]>(BLOBFILE(path = tensor<string, []>("@model_path/weights/weight.bin"), offset = tensor<uint64, []>(34353536)))];
            tensor<fp16, [1, 1037, 1152]> linear_36_cast_fp16 = linear(bias = model_pretrained_blocks_9_attn_qkv_bias_to_fp16, weight = model_pretrained_blocks_9_attn_qkv_weight_to_fp16, x = x_63_cast_fp16)[name = tensor<string, []>("linear_36_cast_fp16")];
            tensor<int32, [5]> var_713 = const()[name = tensor<string, []>("op_713"), val = tensor<int32, [5]>([1, 1037, 3, 6, 64])];
            tensor<fp16, [1, 1037, 3, 6, 64]> var_714_cast_fp16 = reshape(shape = var_713, x = linear_36_cast_fp16)[name = tensor<string, []>("op_714_cast_fp16")];
            tensor<int32, [5]> var_715 = const()[name = tensor<string, []>("op_715"), val = tensor<int32, [5]>([2, 0, 3, 1, 4])];
            tensor<int32, [5]> var_717_begin_0 = const()[name = tensor<string, []>("op_717_begin_0"), val = tensor<int32, [5]>([0, 0, 0, 0, 0])];
            tensor<int32, [5]> var_717_end_0 = const()[name = tensor<string, []>("op_717_end_0"), val = tensor<int32, [5]>([1, 1, 6, 1037, 64])];
            tensor<bool, [5]> var_717_end_mask_0 = const()[name = tensor<string, []>("op_717_end_mask_0"), val = tensor<bool, [5]>([false, true, true, true, true])];
            tensor<bool, [5]> var_717_squeeze_mask_0 = const()[name = tensor<string, []>("op_717_squeeze_mask_0"), val = tensor<bool, [5]>([true, false, false, false, false])];
            tensor<fp16, [3, 1, 6, 1037, 64]> qkv_19_cast_fp16 = transpose(perm = var_715, x = var_714_cast_fp16)[name = tensor<string, []>("transpose_9")];
            tensor<fp16, [1, 6, 1037, 64]> var_717_cast_fp16 = slice_by_index(begin = var_717_begin_0, end = var_717_end_0, end_mask = var_717_end_mask_0, squeeze_mask = var_717_squeeze_mask_0, x = qkv_19_cast_fp16)[name = tensor<string, []>("op_717_cast_fp16")];
            tensor<fp16, []> var_718_to_fp16 = const()[name = tensor<string, []>("op_718_to_fp16"), val = tensor<fp16, []>(0x1p-3)];
            tensor<fp16, [1, 6, 1037, 64]> q_19_cast_fp16 = mul(x = var_717_cast_fp16, y = var_718_to_fp16)[name = tensor<string, []>("q_19_cast_fp16")];
            tensor<int32, [5]> k_19_begin_0 = const()[name = tensor<string, []>("k_19_begin_0"), val = tensor<int32, [5]>([1, 0, 0, 0, 0])];
            tensor<int32, [5]> k_19_end_0 = const()[name = tensor<string, []>("k_19_end_0"), val = tensor<int32, [5]>([2, 1, 6, 1037, 64])];
            tensor<bool, [5]> k_19_end_mask_0 = const()[name = tensor<string, []>("k_19_end_mask_0"), val = tensor<bool, [5]>([false, true, true, true, true])];
            tensor<bool, [5]> k_19_squeeze_mask_0 = const()[name = tensor<string, []>("k_19_squeeze_mask_0"), val = tensor<bool, [5]>([true, false, false, false, false])];
            tensor<fp16, [1, 6, 1037, 64]> k_19_cast_fp16 = slice_by_index(begin = k_19_begin_0, end = k_19_end_0, end_mask = k_19_end_mask_0, squeeze_mask = k_19_squeeze_mask_0, x = qkv_19_cast_fp16)[name = tensor<string, []>("k_19_cast_fp16")];
            tensor<int32, [5]> v_19_begin_0 = const()[name = tensor<string, []>("v_19_begin_0"), val = tensor<int32, [5]>([2, 0, 0, 0, 0])];
            tensor<int32, [5]> v_19_end_0 = const()[name = tensor<string, []>("v_19_end_0"), val = tensor<int32, [5]>([3, 1, 6, 1037, 64])];
            tensor<bool, [5]> v_19_end_mask_0 = const()[name = tensor<string, []>("v_19_end_mask_0"), val = tensor<bool, [5]>([false, true, true, true, true])];
            tensor<bool, [5]> v_19_squeeze_mask_0 = const()[name = tensor<string, []>("v_19_squeeze_mask_0"), val = tensor<bool, [5]>([true, false, false, false, false])];
            tensor<fp16, [1, 6, 1037, 64]> v_19_cast_fp16 = slice_by_index(begin = v_19_begin_0, end = v_19_end_0, end_mask = v_19_end_mask_0, squeeze_mask = v_19_squeeze_mask_0, x = qkv_19_cast_fp16)[name = tensor<string, []>("v_19_cast_fp16")];
            tensor<bool, []> attn_37_transpose_x_1 = const()[name = tensor<string, []>("attn_37_transpose_x_1"), val = tensor<bool, []>(false)];
            tensor<bool, []> attn_37_transpose_y_1 = const()[name = tensor<string, []>("attn_37_transpose_y_1"), val = tensor<bool, []>(true)];
            tensor<fp16, [1, 6, 1037, 1037]> attn_37_cast_fp16 = matmul(transpose_x = attn_37_transpose_x_1, transpose_y = attn_37_transpose_y_1, x = q_19_cast_fp16, y = k_19_cast_fp16)[name = tensor<string, []>("attn_37_cast_fp16")];
            tensor<fp16, [1, 6, 1037, 1037]> input_185_cast_fp16 = softmax(axis = var_26, x = attn_37_cast_fp16)[name = tensor<string, []>("input_185_cast_fp16")];
            tensor<bool, []> var_726_transpose_x_0 = const()[name = tensor<string, []>("op_726_transpose_x_0"), val = tensor<bool, []>(false)];
            tensor<bool, []> var_726_transpose_y_0 = const()[name = tensor<string, []>("op_726_transpose_y_0"), val = tensor<bool, []>(false)];
            tensor<fp16, [1, 6, 1037, 64]> var_726_cast_fp16 = matmul(transpose_x = var_726_transpose_x_0, transpose_y = var_726_transpose_y_0, x = input_185_cast_fp16, y = v_19_cast_fp16)[name = tensor<string, []>("op_726_cast_fp16")];
            tensor<int32, [4]> var_727_perm_0 = const()[name = tensor<string, []>("op_727_perm_0"), val = tensor<int32, [4]>([0, 2, 1, 3])];
            tensor<int32, [3]> var_728 = const()[name = tensor<string, []>("op_728"), val = tensor<int32, [3]>([1, 1037, 384])];
            tensor<fp16, [1, 1037, 6, 64]> var_727_cast_fp16 = transpose(perm = var_727_perm_0, x = var_726_cast_fp16)[name = tensor<string, []>("transpose_8")];
            tensor<fp16, [1, 1037, 384]> input_187_cast_fp16 = reshape(shape = var_728, x = var_727_cast_fp16)[name = tensor<string, []>("input_187_cast_fp16")];
            tensor<fp16, [384, 384]> model_pretrained_blocks_9_attn_proj_weight_to_fp16 = const()[name = tensor<string, []>("model_pretrained_blocks_9_attn_proj_weight_to_fp16"), val = tensor<fp16, [384, 384]>(BLOBFILE(path = tensor<string, []>("@model_path/weights/weight.bin"), offset = tensor<uint64, []>(34355904)))];
            tensor<fp16, [384]> model_pretrained_blocks_9_attn_proj_bias_to_fp16 = const()[name = tensor<string, []>("model_pretrained_blocks_9_attn_proj_bias_to_fp16"), val = tensor<fp16, [384]>(BLOBFILE(path = tensor<string, []>("@model_path/weights/weight.bin"), offset = tensor<uint64, []>(34650880)))];
            tensor<fp16, [1, 1037, 384]> linear_37_cast_fp16 = linear(bias = model_pretrained_blocks_9_attn_proj_bias_to_fp16, weight = model_pretrained_blocks_9_attn_proj_weight_to_fp16, x = input_187_cast_fp16)[name = tensor<string, []>("linear_37_cast_fp16")];
            tensor<fp16, [384]> model_pretrained_blocks_9_ls1_gamma_to_fp16 = const()[name = tensor<string, []>("model_pretrained_blocks_9_ls1_gamma_to_fp16"), val = tensor<fp16, [384]>(BLOBFILE(path = tensor<string, []>("@model_path/weights/weight.bin"), offset = tensor<uint64, []>(34651712)))];
            tensor<fp16, [1, 1037, 384]> var_735_cast_fp16 = mul(x = linear_37_cast_fp16, y = model_pretrained_blocks_9_ls1_gamma_to_fp16)[name = tensor<string, []>("op_735_cast_fp16")];
            tensor<fp16, [1, 1037, 384]> input_191_cast_fp16 = add(x = input_183_cast_fp16, y = var_735_cast_fp16)[name = tensor<string, []>("input_191_cast_fp16")];
            tensor<int32, [1]> input_193_axes_0 = const()[name = tensor<string, []>("input_193_axes_0"), val = tensor<int32, [1]>([-1])];
            tensor<fp16, [384]> model_pretrained_blocks_9_norm2_weight_to_fp16 = const()[name = tensor<string, []>("model_pretrained_blocks_9_norm2_weight_to_fp16"), val = tensor<fp16, [384]>(BLOBFILE(path = tensor<string, []>("@model_path/weights/weight.bin"), offset = tensor<uint64, []>(34652544)))];
            tensor<fp16, [384]> model_pretrained_blocks_9_norm2_bias_to_fp16 = const()[name = tensor<string, []>("model_pretrained_blocks_9_norm2_bias_to_fp16"), val = tensor<fp16, [384]>(BLOBFILE(path = tensor<string, []>("@model_path/weights/weight.bin"), offset = tensor<uint64, []>(34653376)))];
            tensor<fp16, [1, 1037, 384]> input_193_cast_fp16 = layer_norm(axes = input_193_axes_0, beta = model_pretrained_blocks_9_norm2_bias_to_fp16, epsilon = var_8_to_fp16, gamma = model_pretrained_blocks_9_norm2_weight_to_fp16, x = input_191_cast_fp16)[name = tensor<string, []>("input_193_cast_fp16")];
            tensor<fp16, [1536, 384]> model_pretrained_blocks_9_mlp_fc1_weight_to_fp16 = const()[name = tensor<string, []>("model_pretrained_blocks_9_mlp_fc1_weight_to_fp16"), val = tensor<fp16, [1536, 384]>(BLOBFILE(path = tensor<string, []>("@model_path/weights/weight.bin"), offset = tensor<uint64, []>(34654208)))];
            tensor<fp16, [1536]> model_pretrained_blocks_9_mlp_fc1_bias_to_fp16 = const()[name = tensor<string, []>("model_pretrained_blocks_9_mlp_fc1_bias_to_fp16"), val = tensor<fp16, [1536]>(BLOBFILE(path = tensor<string, []>("@model_path/weights/weight.bin"), offset = tensor<uint64, []>(35833920)))];
            tensor<fp16, [1, 1037, 1536]> linear_38_cast_fp16 = linear(bias = model_pretrained_blocks_9_mlp_fc1_bias_to_fp16, weight = model_pretrained_blocks_9_mlp_fc1_weight_to_fp16, x = input_193_cast_fp16)[name = tensor<string, []>("linear_38_cast_fp16")];
            tensor<string, []> input_197_mode_0 = const()[name = tensor<string, []>("input_197_mode_0"), val = tensor<string, []>("EXACT")];
            tensor<fp16, [1, 1037, 1536]> input_197_cast_fp16 = gelu(mode = input_197_mode_0, x = linear_38_cast_fp16)[name = tensor<string, []>("input_197_cast_fp16")];
            tensor<fp16, [384, 1536]> model_pretrained_blocks_9_mlp_fc2_weight_to_fp16 = const()[name = tensor<string, []>("model_pretrained_blocks_9_mlp_fc2_weight_to_fp16"), val = tensor<fp16, [384, 1536]>(BLOBFILE(path = tensor<string, []>("@model_path/weights/weight.bin"), offset = tensor<uint64, []>(35837056)))];
            tensor<fp16, [384]> model_pretrained_blocks_9_mlp_fc2_bias_to_fp16 = const()[name = tensor<string, []>("model_pretrained_blocks_9_mlp_fc2_bias_to_fp16"), val = tensor<fp16, [384]>(BLOBFILE(path = tensor<string, []>("@model_path/weights/weight.bin"), offset = tensor<uint64, []>(37016768)))];
            tensor<fp16, [1, 1037, 384]> linear_39_cast_fp16 = linear(bias = model_pretrained_blocks_9_mlp_fc2_bias_to_fp16, weight = model_pretrained_blocks_9_mlp_fc2_weight_to_fp16, x = input_197_cast_fp16)[name = tensor<string, []>("linear_39_cast_fp16")];
            tensor<fp16, [384]> model_pretrained_blocks_9_ls2_gamma_to_fp16 = const()[name = tensor<string, []>("model_pretrained_blocks_9_ls2_gamma_to_fp16"), val = tensor<fp16, [384]>(BLOBFILE(path = tensor<string, []>("@model_path/weights/weight.bin"), offset = tensor<uint64, []>(37017600)))];
            tensor<fp16, [1, 1037, 384]> var_753_cast_fp16 = mul(x = linear_39_cast_fp16, y = model_pretrained_blocks_9_ls2_gamma_to_fp16)[name = tensor<string, []>("op_753_cast_fp16")];
            tensor<fp16, [1, 1037, 384]> input_203_cast_fp16 = add(x = input_191_cast_fp16, y = var_753_cast_fp16)[name = tensor<string, []>("input_203_cast_fp16")];
            tensor<int32, [1]> x_69_axes_0 = const()[name = tensor<string, []>("x_69_axes_0"), val = tensor<int32, [1]>([-1])];
            tensor<fp16, [384]> model_pretrained_blocks_10_norm1_weight_to_fp16 = const()[name = tensor<string, []>("model_pretrained_blocks_10_norm1_weight_to_fp16"), val = tensor<fp16, [384]>(BLOBFILE(path = tensor<string, []>("@model_path/weights/weight.bin"), offset = tensor<uint64, []>(37018432)))];
            tensor<fp16, [384]> model_pretrained_blocks_10_norm1_bias_to_fp16 = const()[name = tensor<string, []>("model_pretrained_blocks_10_norm1_bias_to_fp16"), val = tensor<fp16, [384]>(BLOBFILE(path = tensor<string, []>("@model_path/weights/weight.bin"), offset = tensor<uint64, []>(37019264)))];
            tensor<fp16, [1, 1037, 384]> x_69_cast_fp16 = layer_norm(axes = x_69_axes_0, beta = model_pretrained_blocks_10_norm1_bias_to_fp16, epsilon = var_8_to_fp16, gamma = model_pretrained_blocks_10_norm1_weight_to_fp16, x = input_203_cast_fp16)[name = tensor<string, []>("x_69_cast_fp16")];
            tensor<fp16, [1152, 384]> model_pretrained_blocks_10_attn_qkv_weight_to_fp16 = const()[name = tensor<string, []>("model_pretrained_blocks_10_attn_qkv_weight_to_fp16"), val = tensor<fp16, [1152, 384]>(BLOBFILE(path = tensor<string, []>("@model_path/weights/weight.bin"), offset = tensor<uint64, []>(37020096)))];
            tensor<fp16, [1152]> model_pretrained_blocks_10_attn_qkv_bias_to_fp16 = const()[name = tensor<string, []>("model_pretrained_blocks_10_attn_qkv_bias_to_fp16"), val = tensor<fp16, [1152]>(BLOBFILE(path = tensor<string, []>("@model_path/weights/weight.bin"), offset = tensor<uint64, []>(37904896)))];
            tensor<fp16, [1, 1037, 1152]> linear_40_cast_fp16 = linear(bias = model_pretrained_blocks_10_attn_qkv_bias_to_fp16, weight = model_pretrained_blocks_10_attn_qkv_weight_to_fp16, x = x_69_cast_fp16)[name = tensor<string, []>("linear_40_cast_fp16")];
            tensor<int32, [5]> var_776 = const()[name = tensor<string, []>("op_776"), val = tensor<int32, [5]>([1, 1037, 3, 6, 64])];
            tensor<fp16, [1, 1037, 3, 6, 64]> var_777_cast_fp16 = reshape(shape = var_776, x = linear_40_cast_fp16)[name = tensor<string, []>("op_777_cast_fp16")];
            tensor<int32, [5]> var_778 = const()[name = tensor<string, []>("op_778"), val = tensor<int32, [5]>([2, 0, 3, 1, 4])];
            tensor<int32, [5]> var_780_begin_0 = const()[name = tensor<string, []>("op_780_begin_0"), val = tensor<int32, [5]>([0, 0, 0, 0, 0])];
            tensor<int32, [5]> var_780_end_0 = const()[name = tensor<string, []>("op_780_end_0"), val = tensor<int32, [5]>([1, 1, 6, 1037, 64])];
            tensor<bool, [5]> var_780_end_mask_0 = const()[name = tensor<string, []>("op_780_end_mask_0"), val = tensor<bool, [5]>([false, true, true, true, true])];
            tensor<bool, [5]> var_780_squeeze_mask_0 = const()[name = tensor<string, []>("op_780_squeeze_mask_0"), val = tensor<bool, [5]>([true, false, false, false, false])];
            tensor<fp16, [3, 1, 6, 1037, 64]> qkv_21_cast_fp16 = transpose(perm = var_778, x = var_777_cast_fp16)[name = tensor<string, []>("transpose_7")];
            tensor<fp16, [1, 6, 1037, 64]> var_780_cast_fp16 = slice_by_index(begin = var_780_begin_0, end = var_780_end_0, end_mask = var_780_end_mask_0, squeeze_mask = var_780_squeeze_mask_0, x = qkv_21_cast_fp16)[name = tensor<string, []>("op_780_cast_fp16")];
            tensor<fp16, []> var_781_to_fp16 = const()[name = tensor<string, []>("op_781_to_fp16"), val = tensor<fp16, []>(0x1p-3)];
            tensor<fp16, [1, 6, 1037, 64]> q_21_cast_fp16 = mul(x = var_780_cast_fp16, y = var_781_to_fp16)[name = tensor<string, []>("q_21_cast_fp16")];
            tensor<int32, [5]> k_21_begin_0 = const()[name = tensor<string, []>("k_21_begin_0"), val = tensor<int32, [5]>([1, 0, 0, 0, 0])];
            tensor<int32, [5]> k_21_end_0 = const()[name = tensor<string, []>("k_21_end_0"), val = tensor<int32, [5]>([2, 1, 6, 1037, 64])];
            tensor<bool, [5]> k_21_end_mask_0 = const()[name = tensor<string, []>("k_21_end_mask_0"), val = tensor<bool, [5]>([false, true, true, true, true])];
            tensor<bool, [5]> k_21_squeeze_mask_0 = const()[name = tensor<string, []>("k_21_squeeze_mask_0"), val = tensor<bool, [5]>([true, false, false, false, false])];
            tensor<fp16, [1, 6, 1037, 64]> k_21_cast_fp16 = slice_by_index(begin = k_21_begin_0, end = k_21_end_0, end_mask = k_21_end_mask_0, squeeze_mask = k_21_squeeze_mask_0, x = qkv_21_cast_fp16)[name = tensor<string, []>("k_21_cast_fp16")];
            tensor<int32, [5]> v_21_begin_0 = const()[name = tensor<string, []>("v_21_begin_0"), val = tensor<int32, [5]>([2, 0, 0, 0, 0])];
            tensor<int32, [5]> v_21_end_0 = const()[name = tensor<string, []>("v_21_end_0"), val = tensor<int32, [5]>([3, 1, 6, 1037, 64])];
            tensor<bool, [5]> v_21_end_mask_0 = const()[name = tensor<string, []>("v_21_end_mask_0"), val = tensor<bool, [5]>([false, true, true, true, true])];
            tensor<bool, [5]> v_21_squeeze_mask_0 = const()[name = tensor<string, []>("v_21_squeeze_mask_0"), val = tensor<bool, [5]>([true, false, false, false, false])];
            tensor<fp16, [1, 6, 1037, 64]> v_21_cast_fp16 = slice_by_index(begin = v_21_begin_0, end = v_21_end_0, end_mask = v_21_end_mask_0, squeeze_mask = v_21_squeeze_mask_0, x = qkv_21_cast_fp16)[name = tensor<string, []>("v_21_cast_fp16")];
            tensor<bool, []> attn_41_transpose_x_1 = const()[name = tensor<string, []>("attn_41_transpose_x_1"), val = tensor<bool, []>(false)];
            tensor<bool, []> attn_41_transpose_y_1 = const()[name = tensor<string, []>("attn_41_transpose_y_1"), val = tensor<bool, []>(true)];
            tensor<fp16, [1, 6, 1037, 1037]> attn_41_cast_fp16 = matmul(transpose_x = attn_41_transpose_x_1, transpose_y = attn_41_transpose_y_1, x = q_21_cast_fp16, y = k_21_cast_fp16)[name = tensor<string, []>("attn_41_cast_fp16")];
            tensor<fp16, [1, 6, 1037, 1037]> input_205_cast_fp16 = softmax(axis = var_26, x = attn_41_cast_fp16)[name = tensor<string, []>("input_205_cast_fp16")];
            tensor<bool, []> var_789_transpose_x_0 = const()[name = tensor<string, []>("op_789_transpose_x_0"), val = tensor<bool, []>(false)];
            tensor<bool, []> var_789_transpose_y_0 = const()[name = tensor<string, []>("op_789_transpose_y_0"), val = tensor<bool, []>(false)];
            tensor<fp16, [1, 6, 1037, 64]> var_789_cast_fp16 = matmul(transpose_x = var_789_transpose_x_0, transpose_y = var_789_transpose_y_0, x = input_205_cast_fp16, y = v_21_cast_fp16)[name = tensor<string, []>("op_789_cast_fp16")];
            tensor<int32, [4]> var_790_perm_0 = const()[name = tensor<string, []>("op_790_perm_0"), val = tensor<int32, [4]>([0, 2, 1, 3])];
            tensor<int32, [3]> var_791 = const()[name = tensor<string, []>("op_791"), val = tensor<int32, [3]>([1, 1037, 384])];
            tensor<fp16, [1, 1037, 6, 64]> var_790_cast_fp16 = transpose(perm = var_790_perm_0, x = var_789_cast_fp16)[name = tensor<string, []>("transpose_6")];
            tensor<fp16, [1, 1037, 384]> input_207_cast_fp16 = reshape(shape = var_791, x = var_790_cast_fp16)[name = tensor<string, []>("input_207_cast_fp16")];
            tensor<fp16, [384, 384]> model_pretrained_blocks_10_attn_proj_weight_to_fp16 = const()[name = tensor<string, []>("model_pretrained_blocks_10_attn_proj_weight_to_fp16"), val = tensor<fp16, [384, 384]>(BLOBFILE(path = tensor<string, []>("@model_path/weights/weight.bin"), offset = tensor<uint64, []>(37907264)))];
            tensor<fp16, [384]> model_pretrained_blocks_10_attn_proj_bias_to_fp16 = const()[name = tensor<string, []>("model_pretrained_blocks_10_attn_proj_bias_to_fp16"), val = tensor<fp16, [384]>(BLOBFILE(path = tensor<string, []>("@model_path/weights/weight.bin"), offset = tensor<uint64, []>(38202240)))];
            tensor<fp16, [1, 1037, 384]> linear_41_cast_fp16 = linear(bias = model_pretrained_blocks_10_attn_proj_bias_to_fp16, weight = model_pretrained_blocks_10_attn_proj_weight_to_fp16, x = input_207_cast_fp16)[name = tensor<string, []>("linear_41_cast_fp16")];
            tensor<fp16, [384]> model_pretrained_blocks_10_ls1_gamma_to_fp16 = const()[name = tensor<string, []>("model_pretrained_blocks_10_ls1_gamma_to_fp16"), val = tensor<fp16, [384]>(BLOBFILE(path = tensor<string, []>("@model_path/weights/weight.bin"), offset = tensor<uint64, []>(38203072)))];
            tensor<fp16, [1, 1037, 384]> var_798_cast_fp16 = mul(x = linear_41_cast_fp16, y = model_pretrained_blocks_10_ls1_gamma_to_fp16)[name = tensor<string, []>("op_798_cast_fp16")];
            tensor<fp16, [1, 1037, 384]> input_211_cast_fp16 = add(x = input_203_cast_fp16, y = var_798_cast_fp16)[name = tensor<string, []>("input_211_cast_fp16")];
            tensor<int32, [1]> input_213_axes_0 = const()[name = tensor<string, []>("input_213_axes_0"), val = tensor<int32, [1]>([-1])];
            tensor<fp16, [384]> model_pretrained_blocks_10_norm2_weight_to_fp16 = const()[name = tensor<string, []>("model_pretrained_blocks_10_norm2_weight_to_fp16"), val = tensor<fp16, [384]>(BLOBFILE(path = tensor<string, []>("@model_path/weights/weight.bin"), offset = tensor<uint64, []>(38203904)))];
            tensor<fp16, [384]> model_pretrained_blocks_10_norm2_bias_to_fp16 = const()[name = tensor<string, []>("model_pretrained_blocks_10_norm2_bias_to_fp16"), val = tensor<fp16, [384]>(BLOBFILE(path = tensor<string, []>("@model_path/weights/weight.bin"), offset = tensor<uint64, []>(38204736)))];
            tensor<fp16, [1, 1037, 384]> input_213_cast_fp16 = layer_norm(axes = input_213_axes_0, beta = model_pretrained_blocks_10_norm2_bias_to_fp16, epsilon = var_8_to_fp16, gamma = model_pretrained_blocks_10_norm2_weight_to_fp16, x = input_211_cast_fp16)[name = tensor<string, []>("input_213_cast_fp16")];
            tensor<fp16, [1536, 384]> model_pretrained_blocks_10_mlp_fc1_weight_to_fp16 = const()[name = tensor<string, []>("model_pretrained_blocks_10_mlp_fc1_weight_to_fp16"), val = tensor<fp16, [1536, 384]>(BLOBFILE(path = tensor<string, []>("@model_path/weights/weight.bin"), offset = tensor<uint64, []>(38205568)))];
            tensor<fp16, [1536]> model_pretrained_blocks_10_mlp_fc1_bias_to_fp16 = const()[name = tensor<string, []>("model_pretrained_blocks_10_mlp_fc1_bias_to_fp16"), val = tensor<fp16, [1536]>(BLOBFILE(path = tensor<string, []>("@model_path/weights/weight.bin"), offset = tensor<uint64, []>(39385280)))];
            tensor<fp16, [1, 1037, 1536]> linear_42_cast_fp16 = linear(bias = model_pretrained_blocks_10_mlp_fc1_bias_to_fp16, weight = model_pretrained_blocks_10_mlp_fc1_weight_to_fp16, x = input_213_cast_fp16)[name = tensor<string, []>("linear_42_cast_fp16")];
            tensor<string, []> input_217_mode_0 = const()[name = tensor<string, []>("input_217_mode_0"), val = tensor<string, []>("EXACT")];
            tensor<fp16, [1, 1037, 1536]> input_217_cast_fp16 = gelu(mode = input_217_mode_0, x = linear_42_cast_fp16)[name = tensor<string, []>("input_217_cast_fp16")];
            tensor<fp16, [384, 1536]> model_pretrained_blocks_10_mlp_fc2_weight_to_fp16 = const()[name = tensor<string, []>("model_pretrained_blocks_10_mlp_fc2_weight_to_fp16"), val = tensor<fp16, [384, 1536]>(BLOBFILE(path = tensor<string, []>("@model_path/weights/weight.bin"), offset = tensor<uint64, []>(39388416)))];
            tensor<fp16, [384]> model_pretrained_blocks_10_mlp_fc2_bias_to_fp16 = const()[name = tensor<string, []>("model_pretrained_blocks_10_mlp_fc2_bias_to_fp16"), val = tensor<fp16, [384]>(BLOBFILE(path = tensor<string, []>("@model_path/weights/weight.bin"), offset = tensor<uint64, []>(40568128)))];
            tensor<fp16, [1, 1037, 384]> linear_43_cast_fp16 = linear(bias = model_pretrained_blocks_10_mlp_fc2_bias_to_fp16, weight = model_pretrained_blocks_10_mlp_fc2_weight_to_fp16, x = input_217_cast_fp16)[name = tensor<string, []>("linear_43_cast_fp16")];
            tensor<fp16, [384]> model_pretrained_blocks_10_ls2_gamma_to_fp16 = const()[name = tensor<string, []>("model_pretrained_blocks_10_ls2_gamma_to_fp16"), val = tensor<fp16, [384]>(BLOBFILE(path = tensor<string, []>("@model_path/weights/weight.bin"), offset = tensor<uint64, []>(40568960)))];
            tensor<fp16, [1, 1037, 384]> var_816_cast_fp16 = mul(x = linear_43_cast_fp16, y = model_pretrained_blocks_10_ls2_gamma_to_fp16)[name = tensor<string, []>("op_816_cast_fp16")];
            tensor<fp16, [1, 1037, 384]> input_223_cast_fp16 = add(x = input_211_cast_fp16, y = var_816_cast_fp16)[name = tensor<string, []>("input_223_cast_fp16")];
            tensor<int32, [1]> x_75_axes_0 = const()[name = tensor<string, []>("x_75_axes_0"), val = tensor<int32, [1]>([-1])];
            tensor<fp16, [384]> model_pretrained_blocks_11_norm1_weight_to_fp16 = const()[name = tensor<string, []>("model_pretrained_blocks_11_norm1_weight_to_fp16"), val = tensor<fp16, [384]>(BLOBFILE(path = tensor<string, []>("@model_path/weights/weight.bin"), offset = tensor<uint64, []>(40569792)))];
            tensor<fp16, [384]> model_pretrained_blocks_11_norm1_bias_to_fp16 = const()[name = tensor<string, []>("model_pretrained_blocks_11_norm1_bias_to_fp16"), val = tensor<fp16, [384]>(BLOBFILE(path = tensor<string, []>("@model_path/weights/weight.bin"), offset = tensor<uint64, []>(40570624)))];
            tensor<fp16, [1, 1037, 384]> x_75_cast_fp16 = layer_norm(axes = x_75_axes_0, beta = model_pretrained_blocks_11_norm1_bias_to_fp16, epsilon = var_8_to_fp16, gamma = model_pretrained_blocks_11_norm1_weight_to_fp16, x = input_223_cast_fp16)[name = tensor<string, []>("x_75_cast_fp16")];
            tensor<fp16, [1152, 384]> model_pretrained_blocks_11_attn_qkv_weight_to_fp16 = const()[name = tensor<string, []>("model_pretrained_blocks_11_attn_qkv_weight_to_fp16"), val = tensor<fp16, [1152, 384]>(BLOBFILE(path = tensor<string, []>("@model_path/weights/weight.bin"), offset = tensor<uint64, []>(40571456)))];
            tensor<fp16, [1152]> model_pretrained_blocks_11_attn_qkv_bias_to_fp16 = const()[name = tensor<string, []>("model_pretrained_blocks_11_attn_qkv_bias_to_fp16"), val = tensor<fp16, [1152]>(BLOBFILE(path = tensor<string, []>("@model_path/weights/weight.bin"), offset = tensor<uint64, []>(41456256)))];
            tensor<fp16, [1, 1037, 1152]> linear_44_cast_fp16 = linear(bias = model_pretrained_blocks_11_attn_qkv_bias_to_fp16, weight = model_pretrained_blocks_11_attn_qkv_weight_to_fp16, x = x_75_cast_fp16)[name = tensor<string, []>("linear_44_cast_fp16")];
            tensor<int32, [5]> var_839 = const()[name = tensor<string, []>("op_839"), val = tensor<int32, [5]>([1, 1037, 3, 6, 64])];
            tensor<fp16, [1, 1037, 3, 6, 64]> var_840_cast_fp16 = reshape(shape = var_839, x = linear_44_cast_fp16)[name = tensor<string, []>("op_840_cast_fp16")];
            tensor<int32, [5]> var_841 = const()[name = tensor<string, []>("op_841"), val = tensor<int32, [5]>([2, 0, 3, 1, 4])];
            tensor<int32, [5]> var_843_begin_0 = const()[name = tensor<string, []>("op_843_begin_0"), val = tensor<int32, [5]>([0, 0, 0, 0, 0])];
            tensor<int32, [5]> var_843_end_0 = const()[name = tensor<string, []>("op_843_end_0"), val = tensor<int32, [5]>([1, 1, 6, 1037, 64])];
            tensor<bool, [5]> var_843_end_mask_0 = const()[name = tensor<string, []>("op_843_end_mask_0"), val = tensor<bool, [5]>([false, true, true, true, true])];
            tensor<bool, [5]> var_843_squeeze_mask_0 = const()[name = tensor<string, []>("op_843_squeeze_mask_0"), val = tensor<bool, [5]>([true, false, false, false, false])];
            tensor<fp16, [3, 1, 6, 1037, 64]> qkv_23_cast_fp16 = transpose(perm = var_841, x = var_840_cast_fp16)[name = tensor<string, []>("transpose_5")];
            tensor<fp16, [1, 6, 1037, 64]> var_843_cast_fp16 = slice_by_index(begin = var_843_begin_0, end = var_843_end_0, end_mask = var_843_end_mask_0, squeeze_mask = var_843_squeeze_mask_0, x = qkv_23_cast_fp16)[name = tensor<string, []>("op_843_cast_fp16")];
            tensor<fp16, []> var_844_to_fp16 = const()[name = tensor<string, []>("op_844_to_fp16"), val = tensor<fp16, []>(0x1p-3)];
            tensor<fp16, [1, 6, 1037, 64]> q_cast_fp16 = mul(x = var_843_cast_fp16, y = var_844_to_fp16)[name = tensor<string, []>("q_cast_fp16")];
            tensor<int32, [5]> k_begin_0 = const()[name = tensor<string, []>("k_begin_0"), val = tensor<int32, [5]>([1, 0, 0, 0, 0])];
            tensor<int32, [5]> k_end_0 = const()[name = tensor<string, []>("k_end_0"), val = tensor<int32, [5]>([2, 1, 6, 1037, 64])];
            tensor<bool, [5]> k_end_mask_0 = const()[name = tensor<string, []>("k_end_mask_0"), val = tensor<bool, [5]>([false, true, true, true, true])];
            tensor<bool, [5]> k_squeeze_mask_0 = const()[name = tensor<string, []>("k_squeeze_mask_0"), val = tensor<bool, [5]>([true, false, false, false, false])];
            tensor<fp16, [1, 6, 1037, 64]> k_cast_fp16 = slice_by_index(begin = k_begin_0, end = k_end_0, end_mask = k_end_mask_0, squeeze_mask = k_squeeze_mask_0, x = qkv_23_cast_fp16)[name = tensor<string, []>("k_cast_fp16")];
            tensor<int32, [5]> v_begin_0 = const()[name = tensor<string, []>("v_begin_0"), val = tensor<int32, [5]>([2, 0, 0, 0, 0])];
            tensor<int32, [5]> v_end_0 = const()[name = tensor<string, []>("v_end_0"), val = tensor<int32, [5]>([3, 1, 6, 1037, 64])];
            tensor<bool, [5]> v_end_mask_0 = const()[name = tensor<string, []>("v_end_mask_0"), val = tensor<bool, [5]>([false, true, true, true, true])];
            tensor<bool, [5]> v_squeeze_mask_0 = const()[name = tensor<string, []>("v_squeeze_mask_0"), val = tensor<bool, [5]>([true, false, false, false, false])];
            tensor<fp16, [1, 6, 1037, 64]> v_cast_fp16 = slice_by_index(begin = v_begin_0, end = v_end_0, end_mask = v_end_mask_0, squeeze_mask = v_squeeze_mask_0, x = qkv_23_cast_fp16)[name = tensor<string, []>("v_cast_fp16")];
            tensor<bool, []> attn_45_transpose_x_1 = const()[name = tensor<string, []>("attn_45_transpose_x_1"), val = tensor<bool, []>(false)];
            tensor<bool, []> attn_45_transpose_y_1 = const()[name = tensor<string, []>("attn_45_transpose_y_1"), val = tensor<bool, []>(true)];
            tensor<fp16, [1, 6, 1037, 1037]> attn_45_cast_fp16 = matmul(transpose_x = attn_45_transpose_x_1, transpose_y = attn_45_transpose_y_1, x = q_cast_fp16, y = k_cast_fp16)[name = tensor<string, []>("attn_45_cast_fp16")];
            tensor<fp16, [1, 6, 1037, 1037]> input_225_cast_fp16 = softmax(axis = var_26, x = attn_45_cast_fp16)[name = tensor<string, []>("input_225_cast_fp16")];
…
            tensor<int32, [4]> input_267_pad_0 = const()[name = tensor<string, []>("input_267_pad_0"), val = tensor<int32, [4]>([1, 1, 1, 1])];
            tensor<int32, [2]> input_267_strides_0 = const()[name = tensor<string, []>("input_267_strides_0"), val = tensor<int32, [2]>([1, 1])];
            tensor<int32, [2]> input_267_dilations_0 = const()[name = tensor<string, []>("input_267_dilations_0"), val = tensor<int32, [2]>([1, 1])];
            tensor<int32, []> input_267_groups_0 = const()[name = tensor<string, []>("input_267_groups_0"), val = tensor<int32, []>(1)];
            tensor<fp16, [64, 384, 3, 3]> model_depth_head_scratch_layer4_rn_weight_to_fp16 = const()[name = tensor<string, []>("model_depth_head_scratch_layer4_rn_weight_to_fp16"), val = tensor<fp16, [64, 384, 3, 3]>(BLOBFILE(path = tensor<string, []>("@model_path/weights/weight.bin"), offset = tensor<uint64, []>(47868160)))];
            tensor<fp16, [1, 64, 14, 19]> input_267_cast_fp16 = conv(dilations = input_267_dilations_0, groups = input_267_groups_0, pad = input_267_pad_0, pad_type = input_267_pad_type_0, strides = input_267_strides_0, weight = model_depth_head_scratch_layer4_rn_weight_to_fp16, x = input_265_cast_fp16)[name = tensor<string, []>("input_267_cast_fp16")];
            tensor<fp16, [1, 64, 14, 19]> input_269_cast_fp16 = relu(x = input_267_cast_fp16)[name = tensor<string, []>("input_269_cast_fp16")];
            tensor<string, []> input_271_pad_type_0 = const()[name = tensor<string, []>("input_271_pad_type_0"), val = tensor<string, []>("custom")];
            tensor<int32, [4]> input_271_pad_0 = const()[name = tensor<string, []>("input_271_pad_0"), val = tensor<int32, [4]>([1, 1, 1, 1])];
            tensor<int32, [2]> input_271_strides_0 = const()[name = tensor<string, []>("input_271_strides_0"), val = tensor<int32, [2]>([1, 1])];
            tensor<int32, [2]> input_271_dilations_0 = const()[name = tensor<string, []>("input_271_dilations_0"), val = tensor<int32, [2]>([1, 1])];
            tensor<int32, []> input_271_groups_0 = const()[name = tensor<string, []>("input_271_groups_0"), val = tensor<int32, []>(1)];
            tensor<fp16, [64, 64, 3, 3]> model_depth_head_scratch_refinenet4_resConfUnit2_conv1_weight_to_fp16 = const()[name = tensor<string, []>("model_depth_head_scratch_refinenet4_resConfUnit2_conv1_weight_to_fp16"), val = tensor<fp16, [64, 64, 3, 3]>(BLOBFILE(path = tensor<string, []>("@model_path/weights/weight.bin"), offset = tensor<uint64, []>(48310592)))];
            tensor<fp16, [64]> model_depth_head_scratch_refinenet4_resConfUnit2_conv1_bias_to_fp16 = const()[name = tensor<string, []>("model_depth_head_scratch_refinenet4_resConfUnit2_conv1_bias_to_fp16"), val = tensor<fp16, [64]>(BLOBFILE(path = tensor<string, []>("@model_path/weights/weight.bin"), offset = tensor<uint64, []>(48384384)))];
            tensor<fp16, [1, 64, 14, 19]> input_271_cast_fp16 = conv(bias = model_depth_head_scratch_refinenet4_resConfUnit2_conv1_bias_to_fp16, dilations = input_271_dilations_0, groups = input_271_groups_0, pad = input_271_pad_0, pad_type = input_271_pad_type_0, strides = input_271_strides_0, weight = model_depth_head_scratch_refinenet4_resConfUnit2_conv1_weight_to_fp16, x = input_269_cast_fp16)[name = tensor<string, []>("input_271_cast_fp16")];
            tensor<fp16, [1, 64, 14, 19]> input_273_cast_fp16 = relu(x = input_271_cast_fp16)[name = tensor<string, []>("input_273_cast_fp16")];
            tensor<string, []> x_89_pad_type_0 = const()[name = tensor<string, []>("x_89_pad_type_0"), val = tensor<string, []>("custom")];
            tensor<int32, [4]> x_89_pad_0 = const()[name = tensor<string, []>("x_89_pad_0"), val = tensor<int32, [4]>([1, 1, 1, 1])];
            tensor<int32, [2]> x_89_strides_0 = const()[name = tensor<string, []>("x_89_strides_0"), val = tensor<int32, [2]>([1, 1])];
            tensor<int32, [2]> x_89_dilations_0 = const()[name = tensor<string, []>("x_89_dilations_0"), val = tensor<int32, [2]>([1, 1])];
            tensor<int32, []> x_89_groups_0 = const()[name = tensor<string, []>("x_89_groups_0"), val = tensor<int32, []>(1)];
            tensor<fp16, [64, 64, 3, 3]> model_depth_head_scratch_refinenet4_resConfUnit2_conv2_weight_to_fp16 = const()[name = tensor<string, []>("model_depth_head_scratch_refinenet4_resConfUnit2_conv2_weight_to_fp16"), val = tensor<fp16, [64, 64, 3, 3]>(BLOBFILE(path = tensor<string, []>("@model_path/weights/weight.bin"), offset = tensor<uint64, []>(48384576)))];
            tensor<fp16, [64]> model_depth_head_scratch_refinenet4_resConfUnit2_conv2_bias_to_fp16 = const()[name = tensor<string, []>("model_depth_head_scratch_refinenet4_resConfUnit2_conv2_bias_to_fp16"), val = tensor<fp16, [64]>(BLOBFILE(path = tensor<string, []>("@model_path/weights/weight.bin"), offset = tensor<uint64, []>(48458368)))];
            tensor<fp16, [1, 64, 14, 19]> x_89_cast_fp16 = conv(bias = model_depth_head_scratch_refinenet4_resConfUnit2_conv2_bias_to_fp16, dilations = x_89_dilations_0, groups = x_89_groups_0, pad = x_89_pad_0, pad_type = x_89_pad_type_0, strides = x_89_strides_0, weight = model_depth_head_scratch_refinenet4_resConfUnit2_conv2_weight_to_fp16, x = input_273_cast_fp16)[name = tensor<string, []>("x_89_cast_fp16")];
            tensor<fp16, [1, 64, 14, 19]> input_275_cast_fp16 = add(x = x_89_cast_fp16, y = input_267_cast_fp16)[name = tensor<string, []>("input_275_cast_fp16")];
            tensor<fp32, []> input_277_scale_factor_height_0 = const()[name = tensor<string, []>("input_277_scale_factor_height_0"), val = tensor<fp32, []>(0x1p+1)];
            tensor<fp32, []> input_277_scale_factor_width_0 = const()[name = tensor<string, []>("input_277_scale_factor_width_0"), val = tensor<fp32, []>(0x1.f28714p+0)];
            tensor<bool, []> input_277_align_corners_0 = const()[name = tensor<string, []>("input_277_align_corners_0"), val = tensor<bool, []>(true)];
            tensor<fp16, [1, 64, 28, 37]> input_277_cast_fp16 = upsample_bilinear(align_corners = input_277_align_corners_0, scale_factor_height = input_277_scale_factor_height_0, scale_factor_width = input_277_scale_factor_width_0, x = input_275_cast_fp16)[name = tensor<string, []>("input_277_cast_fp16")];
            tensor<string, []> x_93_pad_type_0 = const()[name = tensor<string, []>("x_93_pad_type_0"), val = tensor<string, []>("valid")];
            tensor<int32, [2]> x_93_strides_0 = const()[name = tensor<string, []>("x_93_strides_0"), val = tensor<int32, [2]>([1, 1])];
            tensor<int32, [4]> x_93_pad_0 = const()[name = tensor<string, []>("x_93_pad_0"), val = tensor<int32, [4]>([0, 0, 0, 0])];
            tensor<int32, [2]> x_93_dilations_0 = const()[name = tensor<string, []>("x_93_dilations_0"), val = tensor<int32, [2]>([1, 1])];
            tensor<int32, []> x_93_groups_0 = const()[name = tensor<string, []>("x_93_groups_0"), val = tensor<int32, []>(1)];
            tensor<fp16, [64, 64, 1, 1]> model_depth_head_scratch_refinenet4_out_conv_weight_to_fp16 = const()[name = tensor<string, []>("model_depth_head_scratch_refinenet4_out_conv_weight_to_fp16"), val = tensor<fp16, [64, 64, 1, 1]>(BLOBFILE(path = tensor<string, []>("@model_path/weights/weight.bin"), offset = tensor<uint64, []>(48458560)))];
            tensor<fp16, [64]> model_depth_head_scratch_refinenet4_out_conv_bias_to_fp16 = const()[name = tensor<string, []>("model_depth_head_scratch_refinenet4_out_conv_bias_to_fp16"), val = tensor<fp16, [64]>(BLOBFILE(path = tensor<string, []>("@model_path/weights/weight.bin"), offset = tensor<uint64, []>(48466816)))];
            tensor<fp16, [1, 64, 28, 37]> x_93_cast_fp16 = conv(bias = model_depth_head_scratch_refinenet4_out_conv_bias_to_fp16, dilations = x_93_dilations_0, groups = x_93_groups_0, pad = x_93_pad_0, pad_type = x_93_pad_type_0, strides = x_93_strides_0, weight = model_depth_head_scratch_refinenet4_out_conv_weight_to_fp16, x = input_277_cast_fp16)[name = tensor<string, []>("x_93_cast_fp16")];
            tensor<fp16, [1, 64, 28, 37]> input_279_cast_fp16 = relu(x = layer_3_rn_cast_fp16)[name = tensor<string, []>("input_279_cast_fp16")];
            tensor<string, []> input_281_pad_type_0 = const()[name = tensor<string, []>("input_281_pad_type_0"), val = tensor<string, []>("custom")];
            tensor<int32, [4]> input_281_pad_0 = const()[name = tensor<string, []>("input_281_pad_0"), val = tensor<int32, [4]>([1, 1, 1, 1])];
            tensor<int32, [2]> input_281_strides_0 = const()[name = tensor<string, []>("input_281_strides_0"), val = tensor<int32, [2]>([1, 1])];
            tensor<int32, [2]> input_281_dilations_0 = const()[name = tensor<string, []>("input_281_dilations_0"), val = tensor<int32, [2]>([1, 1])];
            tensor<int32, []> input_281_groups_0 = const()[name = tensor<string, []>("input_281_groups_0"), val = tensor<int32, []>(1)];
            tensor<fp16, [64, 64, 3, 3]> model_depth_head_scratch_refinenet3_resConfUnit1_conv1_weight_to_fp16 = const()[name = tensor<string, []>("model_depth_head_scratch_refinenet3_resConfUnit1_conv1_weight_to_fp16"), val = tensor<fp16, [64, 64, 3, 3]>(BLOBFILE(path = tensor<string, []>("@model_path/weights/weight.bin"), offset = tensor<uint64, []>(48467008)))];
            tensor<fp16, [64]> model_depth_head_scratch_refinenet3_resConfUnit1_conv1_bias_to_fp16 = const()[name = tensor<string, []>("model_depth_head_scratch_refinenet3_resConfUnit1_conv1_bias_to_fp16"), val = tensor<fp16, [64]>(BLOBFILE(path = tensor<string, []>("@model_path/weights/weight.bin"), offset = tensor<uint64, []>(48540800)))];
            tensor<fp16, [1, 64, 28, 37]> input_281_cast_fp16 = conv(bias = model_depth_head_scratch_refinenet3_resConfUnit1_conv1_bias_to_fp16, dilations = input_281_dilations_0, groups = input_281_groups_0, pad = input_281_pad_0, pad_type = input_281_pad_type_0, strides = input_281_strides_0, weight = model_depth_head_scratch_refinenet3_resConfUnit1_conv1_weight_to_fp16, x = input_279_cast_fp16)[name = tensor<string, []>("input_281_cast_fp16")];
            tensor<fp16, [1, 64, 28, 37]> input_283_cast_fp16 = relu(x = input_281_cast_fp16)[name = tensor<string, []>("input_283_cast_fp16")];
            tensor<string, []> x_91_pad_type_0 = const()[name = tensor<string, []>("x_91_pad_type_0"), val = tensor<string, []>("custom")];
            tensor<int32, [4]> x_91_pad_0 = const()[name = tensor<string, []>("x_91_pad_0"), val = tensor<int32, [4]>([1, 1, 1, 1])];
            tensor<int32, [2]> x_91_strides_0 = const()[name = tensor<string, []>("x_91_strides_0"), val = tensor<int32, [2]>([1, 1])];
            tensor<int32, [2]> x_91_dilations_0 = const()[name = tensor<string, []>("x_91_dilations_0"), val = tensor<int32, [2]>([1, 1])];
            tensor<int32, []> x_91_groups_0 = const()[name = tensor<string, []>("x_91_groups_0"), val = tensor<int32, []>(1)];
            tensor<fp16, [64, 64, 3, 3]> model_depth_head_scratch_refinenet3_resConfUnit1_conv2_weight_to_fp16 = const()[name = tensor<string, []>("model_depth_head_scratch_refinenet3_resConfUnit1_conv2_weight_to_fp16"), val = tensor<fp16, [64, 64, 3, 3]>(BLOBFILE(path = tensor<string, []>("@model_path/weights/weight.bin"), offset = tensor<uint64, []>(48540992)))];
            tensor<fp16, [64]> model_depth_head_scratch_refinenet3_resConfUnit1_conv2_bias_to_fp16 = const()[name = tensor<string, []>("model_depth_head_scratch_refinenet3_resConfUnit1_conv2_bias_to_fp16"), val = tensor<fp16, [64]>(BLOBFILE(path = tensor<string, []>("@model_path/weights/weight.bin"), offset = tensor<uint64, []>(48614784)))];
            tensor<fp16, [1, 64, 28, 37]> x_91_cast_fp16 = conv(bias = model_depth_head_scratch_refinenet3_resConfUnit1_conv2_bias_to_fp16, dilations = x_91_dilations_0, groups = x_91_groups_0, pad = x_91_pad_0, pad_type = x_91_pad_type_0, strides = x_91_strides_0, weight = model_depth_head_scratch_refinenet3_resConfUnit1_conv2_weight_to_fp16, x = input_283_cast_fp16)[name = tensor<string, []>("x_91_cast_fp16")];
            tensor<fp16, [1, 64, 28, 37]> y_1_cast_fp16 = add(x = x_91_cast_fp16, y = layer_3_rn_cast_fp16)[name = tensor<string, []>("y_1_cast_fp16")];
            tensor<fp16, [1, 64, 28, 37]> input_285_cast_fp16 = add(x = x_93_cast_fp16, y = y_1_cast_fp16)[name = tensor<string, []>("input_285_cast_fp16")];
            tensor<fp16, [1, 64, 28, 37]> input_287_cast_fp16 = relu(x = input_285_cast_fp16)[name = tensor<string, []>("input_287_cast_fp16")];
            tensor<string, []> input_289_pad_type_0 = const()[name = tensor<string, []>("input_289_pad_type_0"), val = tensor<string, []>("custom")];
            tensor<int32, [4]> input_289_pad_0 = const()[name = tensor<string, []>("input_289_pad_0"), val = tensor<int32, [4]>([1, 1, 1, 1])];
            tensor<int32, [2]> input_289_strides_0 = const()[name = tensor<string, []>("input_289_strides_0"), val = tensor<int32, [2]>([1, 1])];
            tensor<int32, [2]> input_289_dilations_0 = const()[name = tensor<string, []>("input_289_dilations_0"), val = tensor<int32, [2]>([1, 1])];
            tensor<int32, []> input_289_groups_0 = const()[name = tensor<string, []>("input_289_groups_0"), val = tensor<int32, []>(1)];
            tensor<fp16, [64, 64, 3, 3]> model_depth_head_scratch_refinenet3_resConfUnit2_conv1_weight_to_fp16 = const()[name = tensor<string, []>("model_depth_head_scratch_refinenet3_resConfUnit2_conv1_weight_to_fp16"), val = tensor<fp16, [64, 64, 3, 3]>(BLOBFILE(path = tensor<string, []>("@model_path/weights/weight.bin"), offset = tensor<uint64, []>(48614976)))];
            tensor<fp16, [64]> model_depth_head_scratch_refinenet3_resConfUnit2_conv1_bias_to_fp16 = const()[name = tensor<string, []>("model_depth_head_scratch_refinenet3_resConfUnit2_conv1_bias_to_fp16"), val = tensor<fp16, [64]>(BLOBFILE(path = tensor<string, []>("@model_path/weights/weight.bin"), offset = tensor<uint64, []>(48688768)))];
            tensor<fp16, [1, 64, 28, 37]> input_289_cast_fp16 = conv(bias = model_depth_head_scratch_refinenet3_resConfUnit2_conv1_bias_to_fp16, dilations = input_289_dilations_0, groups = input_289_groups_0, pad = input_289_pad_0, pad_type = input_289_pad_type_0, strides = input_289_strides_0, weight = model_depth_head_scratch_refinenet3_resConfUnit2_conv1_weight_to_fp16, x = input_287_cast_fp16)[name = tensor<string, []>("input_289_cast_fp16")];
            tensor<fp16, [1, 64, 28, 37]> input_291_cast_fp16 = relu(x = input_289_cast_fp16)[name = tensor<string, []>("input_291_cast_fp16")];
            tensor<string, []> x_95_pad_type_0 = const()[name = tensor<string, []>("x_95_pad_type_0"), val = tensor<string, []>("custom")];
            tensor<int32, [4]> x_95_pad_0 = const()[name = tensor<string, []>("x_95_pad_0"), val = tensor<int32, [4]>([1, 1, 1, 1])];
            tensor<int32, [2]> x_95_strides_0 = const()[name = tensor<string, []>("x_95_strides_0"), val = tensor<int32, [2]>([1, 1])];
            tensor<int32, [2]> x_95_dilations_0 = const()[name = tensor<string, []>("x_95_dilations_0"), val = tensor<int32, [2]>([1, 1])];
            tensor<int32, []> x_95_groups_0 = const()[name = tensor<string, []>("x_95_groups_0"), val = tensor<int32, []>(1)];
            tensor<fp16, [64, 64, 3, 3]> model_depth_head_scratch_refinenet3_resConfUnit2_conv2_weight_to_fp16 = const()[name = tensor<string, []>("model_depth_head_scratch_refinenet3_resConfUnit2_conv2_weight_to_fp16"), val = tensor<fp16, [64, 64, 3, 3]>(BLOBFILE(path = tensor<string, []>("@model_path/weights/weight.bin"), offset = tensor<uint64, []>(48688960)))];
            tensor<fp16, [64]> model_depth_head_scratch_refinenet3_resConfUnit2_conv2_bias_to_fp16 = const()[name = tensor<string, []>("model_depth_head_scratch_refinenet3_resConfUnit2_conv2_bias_to_fp16"), val = tensor<fp16, [64]>(BLOBFILE(path = tensor<string, []>("@model_path/weights/weight.bin"), offset = tensor<uint64, []>(48762752)))];
            tensor<fp16, [1, 64, 28, 37]> x_95_cast_fp16 = conv(bias = model_depth_head_scratch_refinenet3_resConfUnit2_conv2_bias_to_fp16, dilations = x_95_dilations_0, groups = x_95_groups_0, pad = x_95_pad_0, pad_type = x_95_pad_type_0, strides = x_95_strides_0, weight = model_depth_head_scratch_refinenet3_resConfUnit2_conv2_weight_to_fp16, x = input_291_cast_fp16)[name = tensor<string, []>("x_95_cast_fp16")];
            tensor<fp16, [1, 64, 28, 37]> input_293_cast_fp16 = add(x = x_95_cast_fp16, y = input_285_cast_fp16)[name = tensor<string, []>("input_293_cast_fp16")];
            tensor<fp32, []> input_295_scale_factor_height_0 = const()[name = tensor<string, []>("input_295_scale_factor_height_0"), val = tensor<fp32, []>(0x1p+1)];
            tensor<fp32, []> input_295_scale_factor_width_0 = const()[name = tensor<string, []>("input_295_scale_factor_width_0"), val = tensor<fp32, []>(0x1p+1)];
            tensor<bool, []> input_295_align_corners_0 = const()[name = tensor<string, []>("input_295_align_corners_0"), val = tensor<bool, []>(true)];
            tensor<fp16, [1, 64, 56, 74]> input_295_cast_fp16 = upsample_bilinear(align_corners = input_295_align_corners_0, scale_factor_height = input_295_scale_factor_height_0, scale_factor_width = input_295_scale_factor_width_0, x = input_293_cast_fp16)[name = tensor<string, []>("input_295_cast_fp16")];
            tensor<string, []> x_99_pad_type_0 = const()[name = tensor<string, []>("x_99_pad_type_0"), val = tensor<string, []>("valid")];
            tensor<int32, [2]> x_99_strides_0 = const()[name = tensor<string, []>("x_99_strides_0"), val = tensor<int32, [2]>([1, 1])];
            tensor<int32, [4]> x_99_pad_0 = const()[name = tensor<string, []>("x_99_pad_0"), val = tensor<int32, [4]>([0, 0, 0, 0])];
            tensor<int32, [2]> x_99_dilations_0 = const()[name = tensor<string, []>("x_99_dilations_0"), val = tensor<int32, [2]>([1, 1])];
            tensor<int32, []> x_99_groups_0 = const()[name = tensor<string, []>("x_99_groups_0"), val = tensor<int32, []>(1)];
            tensor<fp16, [64, 64, 1, 1]> model_depth_head_scratch_refinenet3_out_conv_weight_to_fp16 = const()[name = tensor<string, []>("model_depth_head_scratch_refinenet3_out_conv_weight_to_fp16"), val = tensor<fp16, [64, 64, 1, 1]>(BLOBFILE(path = tensor<string, []>("@model_path/weights/weight.bin"), offset = tensor<uint64, []>(48762944)))];
            tensor<fp16, [64]> model_depth_head_scratch_refinenet3_out_conv_bias_to_fp16 = const()[name = tensor<string, []>("model_depth_head_scratch_refinenet3_out_conv_bias_to_fp16"), val = tensor<fp16, [64]>(BLOBFILE(path = tensor<string, []>("@model_path/weights/weight.bin"), offset = tensor<uint64, []>(48771200)))];
            tensor<fp16, [1, 64, 56, 74]> x_99_cast_fp16 = conv(bias = model_depth_head_scratch_refinenet3_out_conv_bias_to_fp16, dilations = x_99_dilations_0, groups = x_99_groups_0, pad = x_99_pad_0, pad_type = x_99_pad_type_0, strides = x_99_strides_0, weight = model_depth_head_scratch_refinenet3_out_conv_weight_to_fp16, x = input_295_cast_fp16)[name = tensor<string, []>("x_99_cast_fp16")];
            tensor<fp16, [1, 64, 56, 74]> input_297_cast_fp16 = relu(x = layer_2_rn_cast_fp16)[name = tensor<string, []>("input_297_cast_fp16")];
            tensor<string, []> input_299_pad_type_0 = const()[name = tensor<string, []>("input_299_pad_type_0"), val = tensor<string, []>("custom")];
            tensor<int32, [4]> input_299_pad_0 = const()[name = tensor<string, []>("input_299_pad_0"), val = tensor<int32, [4]>([1, 1, 1, 1])];
            tensor<int32, [2]> input_299_strides_0 = const()[name = tensor<string, []>("input_299_strides_0"), val = tensor<int32, [2]>([1, 1])];
            tensor<int32, [2]> input_299_dilations_0 = const()[name = tensor<string, []>("input_299_dilations_0"), val = tensor<int32, [2]>([1, 1])];
            tensor<int32, []> input_299_groups_0 = const()[name = tensor<string, []>("input_299_groups_0"), val = tensor<int32, []>(1)];
            tensor<fp16, [64, 64, 3, 3]> model_depth_head_scratch_refinenet2_resConfUnit1_conv1_weight_to_fp16 = const()[name = tensor<string, []>("model_depth_head_scratch_refinenet2_resConfUnit1_conv1_weight_to_fp16"), val = tensor<fp16, [64, 64, 3, 3]>(BLOBFILE(path = tensor<string, []>("@model_path/weights/weight.bin"), offset = tensor<uint64, []>(48771392)))];
            tensor<fp16, [64]> model_depth_head_scratch_refinenet2_resConfUnit1_conv1_bias_to_fp16 = const()[name = tensor<string, []>("model_depth_head_scratch_refinenet2_resConfUnit1_conv1_bias_to_fp16"), val = tensor<fp16, [64]>(BLOBFILE(path = tensor<string, []>("@model_path/weights/weight.bin"), offset = tensor<uint64, []>(48845184)))];
            tensor<fp16, [1, 64, 56, 74]> input_299_cast_fp16 = conv(bias = model_depth_head_scratch_refinenet2_resConfUnit1_conv1_bias_to_fp16, dilations = input_299_dilations_0, groups = input_299_groups_0, pad = input_299_pad_0, pad_type = input_299_pad_type_0, strides = input_299_strides_0, weight = model_depth_head_scratch_refinenet2_resConfUnit1_conv1_weight_to_fp16, x = input_297_cast_fp16)[name = tensor<string, []>("input_299_cast_fp16")];
            tensor<fp16, [1, 64, 56, 74]> input_301_cast_fp16 = relu(x = input_299_cast_fp16)[name = tensor<string, []>("input_301_cast_fp16")];
            tensor<string, []> x_97_pad_type_0 = const()[name = tensor<string, []>("x_97_pad_type_0"), val = tensor<string, []>("custom")];
            tensor<int32, [4]> x_97_pad_0 = const()[name = tensor<string, []>("x_97_pad_0"), val = tensor<int32, [4]>([1, 1, 1, 1])];
            tensor<int32, [2]> x_97_strides_0 = const()[name = tensor<string, []>("x_97_strides_0"), val = tensor<int32, [2]>([1, 1])];
            tensor<int32, [2]> x_97_dilations_0 = const()[name = tensor<string, []>("x_97_dilations_0"), val = tensor<int32, [2]>([1, 1])];
            tensor<int32, []> x_97_groups_0 = const()[name = tensor<string, []>("x_97_groups_0"), val = tensor<int32, []>(1)];
            tensor<fp16, [64, 64, 3, 3]> model_depth_head_scratch_refinenet2_resConfUnit1_conv2_weight_to_fp16 = const()[name = tensor<string, []>("model_depth_head_scratch_refinenet2_resConfUnit1_conv2_weight_to_fp16"), val = tensor<fp16, [64, 64, 3, 3]>(BLOBFILE(path = tensor<string, []>("@model_path/weights/weight.bin"), offset = tensor<uint64, []>(48845376)))];
            tensor<fp16, [64]> model_depth_head_scratch_refinenet2_resConfUnit1_conv2_bias_to_fp16 = const()[name = tensor<string, []>("model_depth_head_scratch_refinenet2_resConfUnit1_conv2_bias_to_fp16"), val = tensor<fp16, [64]>(BLOBFILE(path = tensor<string, []>("@model_path/weights/weight.bin"), offset = tensor<uint64, []>(48919168)))];
            tensor<fp16, [1, 64, 56, 74]> x_97_cast_fp16 = conv(bias = model_depth_head_scratch_refinenet2_resConfUnit1_conv2_bias_to_fp16, dilations = x_97_dilations_0, groups = x_97_groups_0, pad = x_97_pad_0, pad_type = x_97_pad_type_0, strides = x_97_strides_0, weight = model_depth_head_scratch_refinenet2_resConfUnit1_conv2_weight_to_fp16, x = input_301_cast_fp16)[name = tensor<string, []>("x_97_cast_fp16")];
            tensor<fp16, [1, 64, 56, 74]> y_3_cast_fp16 = add(x = x_97_cast_fp16, y = layer_2_rn_cast_fp16)[name = tensor<string, []>("y_3_cast_fp16")];
            tensor<fp16, [1, 64, 56, 74]> input_303_cast_fp16 = add(x = x_99_cast_fp16, y = y_3_cast_fp16)[name = tensor<string, []>("input_303_cast_fp16")];
            tensor<fp16, [1, 64, 56, 74]> input_305_cast_fp16 = relu(x = input_303_cast_fp16)[name = tensor<string, []>("input_305_cast_fp16")];
            tensor<string, []> input_307_pad_type_0 = const()[name = tensor<string, []>("input_307_pad_type_0"), val = tensor<string, []>("custom")];
            tensor<int32, [4]> input_307_pad_0 = const()[name = tensor<string, []>("input_307_pad_0"), val = tensor<int32, [4]>([1, 1, 1, 1])];
            tensor<int32, [2]> input_307_strides_0 = const()[name = tensor<string, []>("input_307_strides_0"), val = tensor<int32, [2]>([1, 1])];
            tensor<int32, [2]> input_307_dilations_0 = const()[name = tensor<string, []>("input_307_dilations_0"), val = tensor<int32, [2]>([1, 1])];
            tensor<int32, []> input_307_groups_0 = const()[name = tensor<string, []>("input_307_groups_0"), val = tensor<int32, []>(1)];
            tensor<fp16, [64, 64, 3, 3]> model_depth_head_scratch_refinenet2_resConfUnit2_conv1_weight_to_fp16 = const()[name = tensor<string, []>("model_depth_head_scratch_refinenet2_resConfUnit2_conv1_weight_to_fp16"), val = tensor<fp16, [64, 64, 3, 3]>(BLOBFILE(path = tensor<string, []>("@model_path/weights/weight.bin"), offset = tensor<uint64, []>(48919360)))];
            tensor<fp16, [64]> model_depth_head_scratch_refinenet2_resConfUnit2_conv1_bias_to_fp16 = const()[name = tensor<string, []>("model_depth_head_scratch_refinenet2_resConfUnit2_conv1_bias_to_fp16"), val = tensor<fp16, [64]>(BLOBFILE(path = tensor<string, []>("@model_path/weights/weight.bin"), offset = tensor<uint64, []>(48993152)))];
            tensor<fp16, [1, 64, 56, 74]> input_307_cast_fp16 = conv(bias = model_depth_head_scratch_refinenet2_resConfUnit2_conv1_bias_to_fp16, dilations = input_307_dilations_0, groups = input_307_groups_0, pad = input_307_pad_0, pad_type = input_307_pad_type_0, strides = input_307_strides_0, weight = model_depth_head_scratch_refinenet2_resConfUnit2_conv1_weight_to_fp16, x = input_305_cast_fp16)[name = tensor<string, []>("input_307_cast_fp16")];
            tensor<fp16, [1, 64, 56, 74]> input_309_cast_fp16 = relu(x = input_307_cast_fp16)[name = tensor<string, []>("input_309_cast_fp16")];
            tensor<string, []> x_101_pad_type_0 = const()[name = tensor<string, []>("x_101_pad_type_0"), val = tensor<string, []>("custom")];
            tensor<int32, [4]> x_101_pad_0 = const()[name = tensor<string, []>("x_101_pad_0"), val = tensor<int32, [4]>([1, 1, 1, 1])];
            tensor<int32, [2]> x_101_strides_0 = const()[name = tensor<string, []>("x_101_strides_0"), val = tensor<int32, [2]>([1, 1])];
            tensor<int32, [2]> x_101_dilations_0 = const()[name = tensor<string, []>("x_101_dilations_0"), val = tensor<int32, [2]>([1, 1])];
            tensor<int32, []> x_101_groups_0 = const()[name = tensor<string, []>("x_101_groups_0"), val = tensor<int32, []>(1)];
            tensor<fp16, [64, 64, 3, 3]> model_depth_head_scratch_refinenet2_resConfUnit2_conv2_weight_to_fp16 = const()[name = tensor<string, []>("model_depth_head_scratch_refinenet2_resConfUnit2_conv2_weight_to_fp16"), val = tensor<fp16, [64, 64, 3, 3]>(BLOBFILE(path = tensor<string, []>("@model_path/weights/weight.bin"), offset = tensor<uint64, []>(48993344)))];
            tensor<fp16, [64]> model_depth_head_scratch_refinenet2_resConfUnit2_conv2_bias_to_fp16 = const()[name = tensor<string, []>("model_depth_head_scratch_refinenet2_resConfUnit2_conv2_bias_to_fp16"), val = tensor<fp16, [64]>(BLOBFILE(path = tensor<string, []>("@model_path/weights/weight.bin"), offset = tensor<uint64, []>(49067136)))];
            tensor<fp16, [1, 64, 56, 74]> x_101_cast_fp16 = conv(bias = model_depth_head_scratch_refinenet2_resConfUnit2_conv2_bias_to_fp16, dilations = x_101_dilations_0, groups = x_101_groups_0, pad = x_101_pad_0, pad_type = x_101_pad_type_0, strides = x_101_strides_0, weight = model_depth_head_scratch_refinenet2_resConfUnit2_conv2_weight_to_fp16, x = input_309_cast_fp16)[name = tensor<string, []>("x_101_cast_fp16")];
            tensor<fp16, [1, 64, 56, 74]> input_311_cast_fp16 = add(x = x_101_cast_fp16, y = input_303_cast_fp16)[name = tensor<string, []>("input_311_cast_fp16")];
            tensor<fp32, []> input_313_scale_factor_height_0 = const()[name = tensor<string, []>("input_313_scale_factor_height_0"), val = tensor<fp32, []>(0x1p+1)];
            tensor<fp32, []> input_313_scale_factor_width_0 = const()[name = tensor<string, []>("input_313_scale_factor_width_0"), val = tensor<fp32, []>(0x1p+1)];
            tensor<bool, []> input_313_align_corners_0 = const()[name = tensor<string, []>("input_313_align_corners_0"), val = tensor<bool, []>(true)];
            tensor<fp16, [1, 64, 112, 148]> input_313_cast_fp16 = upsample_bilinear(align_corners = input_313_align_corners_0, scale_factor_height = input_313_scale_factor_height_0, scale_factor_width = input_313_scale_factor_width_0, x = input_311_cast_fp16)[name = tensor<string, []>("input_313_cast_fp16")];
            tensor<string, []> x_105_pad_type_0 = const()[name = tensor<string, []>("x_105_pad_type_0"), val = tensor<string, []>("valid")];
            tensor<int32, [2]> x_105_strides_0 = const()[name = tensor<string, []>("x_105_strides_0"), val = tensor<int32, [2]>([1, 1])];
            tensor<int32, [4]> x_105_pad_0 = const()[name = tensor<string, []>("x_105_pad_0"), val = tensor<int32, [4]>([0, 0, 0, 0])];
            tensor<int32, [2]> x_105_dilations_0 = const()[name = tensor<string, []>("x_105_dilations_0"), val = tensor<int32, [2]>([1, 1])];
            tensor<int32, []> x_105_groups_0 = const()[name = tensor<string, []>("x_105_groups_0"), val = tensor<int32, []>(1)];
            tensor<fp16, [64, 64, 1, 1]> model_depth_head_scratch_refinenet2_out_conv_weight_to_fp16 = const()[name = tensor<string, []>("model_depth_head_scratch_refinenet2_out_conv_weight_to_fp16"), val = tensor<fp16, [64, 64, 1, 1]>(BLOBFILE(path = tensor<string, []>("@model_path/weights/weight.bin"), offset = tensor<uint64, []>(49067328)))];
            tensor<fp16, [64]> model_depth_head_scratch_refinenet2_out_conv_bias_to_fp16 = const()[name = tensor<string, []>("model_depth_head_scratch_refinenet2_out_conv_bias_to_fp16"), val = tensor<fp16, [64]>(BLOBFILE(path = tensor<string, []>("@model_path/weights/weight.bin"), offset = tensor<uint64, []>(49075584)))];
            tensor<fp16, [1, 64, 112, 148]> x_105_cast_fp16 = conv(bias = model_depth_head_scratch_refinenet2_out_conv_bias_to_fp16, dilations = x_105_dilations_0, groups = x_105_groups_0, pad = x_105_pad_0, pad_type = x_105_pad_type_0, strides = x_105_strides_0, weight = model_depth_head_scratch_refinenet2_out_conv_weight_to_fp16, x = input_313_cast_fp16)[name = tensor<string, []>("x_105_cast_fp16")];
            tensor<fp16, [1, 64, 112, 148]> input_315_cast_fp16 = relu(x = layer_1_rn_cast_fp16)[name = tensor<string, []>("input_315_cast_fp16")];
            tensor<string, []> input_317_pad_type_0 = const()[name = tensor<string, []>("input_317_pad_type_0"), val = tensor<string, []>("custom")];
            tensor<int32, [4]> input_317_pad_0 = const()[name = tensor<string, []>("input_317_pad_0"), val = tensor<int32, [4]>([1, 1, 1, 1])];
            tensor<int32, [2]> input_317_strides_0 = const()[name = tensor<string, []>("input_317_strides_0"), val = tensor<int32, [2]>([1, 1])];
            tensor<int32, [2]> input_317_dilations_0 = const()[name = tensor<string, []>("input_317_dilations_0"), val = tensor<int32, [2]>([1, 1])];
            tensor<int32, []> input_317_groups_0 = const()[name = tensor<string, []>("input_317_groups_0"), val = tensor<int32, []>(1)];
            tensor<fp16, [64, 64, 3, 3]> model_depth_head_scratch_refinenet1_resConfUnit1_conv1_weight_to_fp16 = const()[name = tensor<string, []>("model_depth_head_scratch_refinenet1_resConfUnit1_conv1_weight_to_fp16"), val = tensor<fp16, [64, 64, 3, 3]>(BLOBFILE(path = tensor<string, []>("@model_path/weights/weight.bin"), offset = tensor<uint64, []>(49075776)))];
            tensor<fp16, [64]> model_depth_head_scratch_refinenet1_resConfUnit1_conv1_bias_to_fp16 = const()[name = tensor<string, []>("model_depth_head_scratch_refinenet1_resConfUnit1_conv1_bias_to_fp16"), val = tensor<fp16, [64]>(BLOBFILE(path = tensor<string, []>("@model_path/weights/weight.bin"), offset = tensor<uint64, []>(49149568)))];
            tensor<fp16, [1, 64, 112, 148]> input_317_cast_fp16 = conv(bias = model_depth_head_scratch_refinenet1_resConfUnit1_conv1_bias_to_fp16, dilations = input_317_dilations_0, groups = input_317_groups_0, pad = input_317_pad_0, pad_type = input_317_pad_type_0, strides = input_317_strides_0, weight = model_depth_head_scratch_refinenet1_resConfUnit1_conv1_weight_to_fp16, x = input_315_cast_fp16)[name = tensor<string, []>("input_317_cast_fp16")];
            tensor<fp16, [1, 64, 112, 148]> input_319_cast_fp16 = relu(x = input_317_cast_fp16)[name = tensor<string, []>("input_319_cast_fp16")];
            tensor<string, []> x_103_pad_type_0 = const()[name = tensor<string, []>("x_103_pad_type_0"), val = tensor<string, []>("custom")];
            tensor<int32, [4]> x_103_pad_0 = const()[name = tensor<string, []>("x_103_pad_0"), val = tensor<int32, [4]>([1, 1, 1, 1])];
            tensor<int32, [2]> x_103_strides_0 = const()[name = tensor<string, []>("x_103_strides_0"), val = tensor<int32, [2]>([1, 1])];
            tensor<int32, [2]> x_103_dilations_0 = const()[name = tensor<string, []>("x_103_dilations_0"), val = tensor<int32, [2]>([1, 1])];
            tensor<int32, []> x_103_groups_0 = const()[name = tensor<string, []>("x_103_groups_0"), val = tensor<int32, []>(1)];
            tensor<fp16, [64, 64, 3, 3]> model_depth_head_scratch_refinenet1_resConfUnit1_conv2_weight_to_fp16 = const()[name = tensor<string, []>("model_depth_head_scratch_refinenet1_resConfUnit1_conv2_weight_to_fp16"), val = tensor<fp16, [64, 64, 3, 3]>(BLOBFILE(path = tensor<string, []>("@model_path/weights/weight.bin"), offset = tensor<uint64, []>(49149760)))];
            tensor<fp16, [64]> model_depth_head_scratch_refinenet1_resConfUnit1_conv2_bias_to_fp16 = const()[name = tensor<string, []>("model_depth_head_scratch_refinenet1_resConfUnit1_conv2_bias_to_fp16"), val = tensor<fp16, [64]>(BLOBFILE(path = tensor<string, []>("@model_path/weights/weight.bin"), offset = tensor<uint64, []>(49223552)))];
            tensor<fp16, [1, 64, 112, 148]> x_103_cast_fp16 = conv(bias = model_depth_head_scratch_refinenet1_resConfUnit1_conv2_bias_to_fp16, dilations = x_103_dilations_0, groups = x_103_groups_0, pad = x_103_pad_0, pad_type = x_103_pad_type_0, strides = x_103_strides_0, weight = model_depth_head_scratch_refinenet1_resConfUnit1_conv2_weight_to_fp16, x = input_319_cast_fp16)[name = tensor<string, []>("x_103_cast_fp16")];
            tensor<fp16, [1, 64, 112, 148]> y_cast_fp16 = add(x = x_103_cast_fp16, y = layer_1_rn_cast_fp16)[name = tensor<string, []>("y_cast_fp16")];
            tensor<fp16, [1, 64, 112, 148]> input_321_cast_fp16 = add(x = x_105_cast_fp16, y = y_cast_fp16)[name = tensor<string, []>("input_321_cast_fp16")];
            tensor<fp16, [1, 64, 112, 148]> input_323_cast_fp16 = relu(x = input_321_cast_fp16)[name = tensor<string, []>("input_323_cast_fp16")];
            tensor<string, []> input_325_pad_type_0 = const()[name = tensor<string, []>("input_325_pad_type_0"), val = tensor<string, []>("custom")];
            tensor<int32, [4]> input_325_pad_0 = const()[name = tensor<string, []>("input_325_pad_0"), val = tensor<int32, [4]>([1, 1, 1, 1])];
            tensor<int32, [2]> input_325_strides_0 = const()[name = tensor<string, []>("input_325_strides_0"), val = tensor<int32, [2]>([1, 1])];
            tensor<int32, [2]> input_325_dilations_0 = const()[name = tensor<string, []>("input_325_dilations_0"), val = tensor<int32, [2]>([1, 1])];
            tensor<int32, []> input_325_groups_0 = const()[name = tensor<string, []>("input_325_groups_0"), val = tensor<int32, []>(1)];
            tensor<fp16, [64, 64, 3, 3]> model_depth_head_scratch_refinenet1_resConfUnit2_conv1_weight_to_fp16 = const()[name = tensor<string, []>("model_depth_head_scratch_refinenet1_resConfUnit2_conv1_weight_to_fp16"), val = tensor<fp16, [64, 64, 3, 3]>(BLOBFILE(path = tensor<string, []>("@model_path/weights/weight.bin"), offset = tensor<uint64, []>(49223744)))];
            tensor<fp16, [64]> model_depth_head_scratch_refinenet1_resConfUnit2_conv1_bias_to_fp16 = const()[name = tensor<string, []>("model_depth_head_scratch_refinenet1_resConfUnit2_conv1_bias_to_fp16"), val = tensor<fp16, [64]>(BLOBFILE(path = tensor<string, []>("@model_path/weights/weight.bin"), offset = tensor<uint64, []>(49297536)))];
            tensor<fp16, [1, 64, 112, 148]> input_325_cast_fp16 = conv(bias = model_depth_head_scratch_refinenet1_resConfUnit2_conv1_bias_to_fp16, dilations = input_325_dilations_0, groups = input_325_groups_0, pad = input_325_pad_0, pad_type = input_325_pad_type_0, strides = input_325_strides_0, weight = model_depth_head_scratch_refinenet1_resConfUnit2_conv1_weight_to_fp16, x = input_323_cast_fp16)[name = tensor<string, []>("input_325_cast_fp16")];
            tensor<fp16, [1, 64, 112, 148]> input_327_cast_fp16 = relu(x = input_325_cast_fp16)[name = tensor<string, []>("input_327_cast_fp16")];
            tensor<string, []> x_pad_type_0 = const()[name = tensor<string, []>("x_pad_type_0"), val = tensor<string, []>("custom")];
            tensor<int32, [4]> x_pad_0 = const()[name = tensor<string, []>("x_pad_0"), val = tensor<int32, [4]>([1, 1, 1, 1])];
            tensor<int32, [2]> x_strides_0 = const()[name = tensor<string, []>("x_strides_0"), val = tensor<int32, [2]>([1, 1])];
            tensor<int32, [2]> x_dilations_0 = const()[name = tensor<string, []>("x_dilations_0"), val = tensor<int32, [2]>([1, 1])];
            tensor<int32, []> x_groups_0 = const()[name = tensor<string, []>("x_groups_0"), val = tensor<int32, []>(1)];
            tensor<fp16, [64, 64, 3, 3]> model_depth_head_scratch_refinenet1_resConfUnit2_conv2_weight_to_fp16 = const()[name = tensor<string, []>("model_depth_head_scratch_refinenet1_resConfUnit2_conv2_weight_to_fp16"), val = tensor<fp16, [64, 64, 3, 3]>(BLOBFILE(path = tensor<string, []>("@model_path/weights/weight.bin"), offset = tensor<uint64, []>(49297728)))];
            tensor<fp16, [64]> model_depth_head_scratch_refinenet1_resConfUnit2_conv2_bias_to_fp16 = const()[name = tensor<string, []>("model_depth_head_scratch_refinenet1_resConfUnit2_conv2_bias_to_fp16"), val = tensor<fp16, [64]>(BLOBFILE(path = tensor<string, []>("@model_path/weights/weight.bin"), offset = tensor<uint64, []>(49371520)))];
            tensor<fp16, [1, 64, 112, 148]> x_cast_fp16 = conv(bias = model_depth_head_scratch_refinenet1_resConfUnit2_conv2_bias_to_fp16, dilations = x_dilations_0, groups = x_groups_0, pad = x_pad_0, pad_type = x_pad_type_0, strides = x_strides_0, weight = model_depth_head_scratch_refinenet1_resConfUnit2_conv2_weight_to_fp16, x = input_327_cast_fp16)[name = tensor<string, []>("x_cast_fp16")];
            tensor<fp16, [1, 64, 112, 148]> input_329_cast_fp16 = add(x = x_cast_fp16, y = input_321_cast_fp16)[name = tensor<string, []>("input_329_cast_fp16")];
            tensor<fp32, []> input_331_scale_factor_height_0 = const()[name = tensor<string, []>("input_331_scale_factor_height_0"), val = tensor<fp32, []>(0x1p+1)];
            tensor<fp32, []> input_331_scale_factor_width_0 = const()[name = tensor<string, []>("input_331_scale_factor_width_0"), val = tensor<fp32, []>(0x1p+1)];
            tensor<bool, []> input_331_align_corners_0 = const()[name = tensor<string, []>("input_331_align_corners_0"), val = tensor<bool, []>(true)];
            tensor<fp16, [1, 64, 224, 296]> input_331_cast_fp16 = upsample_bilinear(align_corners = input_331_align_corners_0, scale_factor_height = input_331_scale_factor_height_0, scale_factor_width = input_331_scale_factor_width_0, x = input_329_cast_fp16)[name = tensor<string, []>("input_331_cast_fp16")];
            tensor<string, []> input_333_pad_type_0 = const()[name = tensor<string, []>("input_333_pad_type_0"), val = tensor<string, []>("valid")];
            tensor<int32, [2]> input_333_strides_0 = const()[name = tensor<string, []>("input_333_strides_0"), val = tensor<int32, [2]>([1, 1])];
            tensor<int32, [4]> input_333_pad_0 = const()[name = tensor<string, []>("input_333_pad_0"), val = tensor<int32, [4]>([0, 0, 0, 0])];
            tensor<int32, [2]> input_333_dilations_0 = const()[name = tensor<string, []>("input_333_dilations_0"), val = tensor<int32, [2]>([1, 1])];
            tensor<int32, []> input_333_groups_0 = const()[name = tensor<string, []>("input_333_groups_0"), val = tensor<int32, []>(1)];
            tensor<fp16, [64, 64, 1, 1]> model_depth_head_scratch_refinenet1_out_conv_weight_to_fp16 = const()[name = tensor<string, []>("model_depth_head_scratch_refinenet1_out_conv_weight_to_fp16"), val = tensor<fp16, [64, 64, 1, 1]>(BLOBFILE(path = tensor<string, []>("@model_path/weights/weight.bin"), offset = tensor<uint64, []>(49371712)))];
            tensor<fp16, [64]> model_depth_head_scratch_refinenet1_out_conv_bias_to_fp16 = const()[name = tensor<string, []>("model_depth_head_scratch_refinenet1_out_conv_bias_to_fp16"), val = tensor<fp16, [64]>(BLOBFILE(path = tensor<string, []>("@model_path/weights/weight.bin"), offset = tensor<uint64, []>(49379968)))];
            tensor<fp16, [1, 64, 224, 296]> input_333_cast_fp16 = conv(bias = model_depth_head_scratch_refinenet1_out_conv_bias_to_fp16, dilations = input_333_dilations_0, groups = input_333_groups_0, pad = input_333_pad_0, pad_type = input_333_pad_type_0, strides = input_333_strides_0, weight = model_depth_head_scratch_refinenet1_out_conv_weight_to_fp16, x = input_331_cast_fp16)[name = tensor<string, []>("input_333_cast_fp16")];
            tensor<string, []> input_335_pad_type_0 = const()[name = tensor<string, []>("input_335_pad_type_0"), val = tensor<string, []>("custom")];
            tensor<int32, [4]> input_335_pad_0 = const()[name = tensor<string, []>("input_335_pad_0"), val = tensor<int32, [4]>([1, 1, 1, 1])];
            tensor<int32, [2]> input_335_strides_0 = const()[name = tensor<string, []>("input_335_strides_0"), val = tensor<int32, [2]>([1, 1])];
            tensor<int32, [2]> input_335_dilations_0 = const()[name = tensor<string, []>("input_335_dilations_0"), val = tensor<int32, [2]>([1, 1])];
            tensor<int32, []> input_335_groups_0 = const()[name = tensor<string, []>("input_335_groups_0"), val = tensor<int32, []>(1)];
            tensor<fp16, [32, 64, 3, 3]> model_depth_head_scratch_output_conv1_weight_to_fp16 = const()[name = tensor<string, []>("model_depth_head_scratch_output_conv1_weight_to_fp16"), val = tensor<fp16, [32, 64, 3, 3]>(BLOBFILE(path = tensor<string, []>("@model_path/weights/weight.bin"), offset = tensor<uint64, []>(49380160)))];
            tensor<fp16, [32]> model_depth_head_scratch_output_conv1_bias_to_fp16 = const()[name = tensor<string, []>("model_depth_head_scratch_output_conv1_bias_to_fp16"), val = tensor<fp16, [32]>(BLOBFILE(path = tensor<string, []>("@model_path/weights/weight.bin"), offset = tensor<uint64, []>(49417088)))];
            tensor<fp16, [1, 32, 224, 296]> input_335_cast_fp16 = conv(bias = model_depth_head_scratch_output_conv1_bias_to_fp16, dilations = input_335_dilations_0, groups = input_335_groups_0, pad = input_335_pad_0, pad_type = input_335_pad_type_0, strides = input_335_strides_0, weight = model_depth_head_scratch_output_conv1_weight_to_fp16, x = input_333_cast_fp16)[name = tensor<string, []>("input_335_cast_fp16")];
            tensor<fp32, []> input_337_scale_factor_height_0 = const()[name = tensor<string, []>("input_337_scale_factor_height_0"), val = tensor<fp32, []>(0x1.c00008p+0)];
            tensor<fp32, []> input_337_scale_factor_width_0 = const()[name = tensor<string, []>("input_337_scale_factor_width_0"), val = tensor<fp32, []>(0x1.c00006p+0)];
            tensor<bool, []> input_337_align_corners_0 = const()[name = tensor<string, []>("input_337_align_corners_0"), val = tensor<bool, []>(true)];
            tensor<fp16, [1, 32, 392, 518]> input_337_cast_fp16 = upsample_bilinear(align_corners = input_337_align_corners_0, scale_factor_height = input_337_scale_factor_height_0, scale_factor_width = input_337_scale_factor_width_0, x = input_335_cast_fp16)[name = tensor<string, []>("input_337_cast_fp16")];
            tensor<string, []> input_339_pad_type_0 = const()[name = tensor<string, []>("input_339_pad_type_0"), val = tensor<string, []>("custom")];
            tensor<int32, [4]> input_339_pad_0 = const()[name = tensor<string, []>("input_339_pad_0"), val = tensor<int32, [4]>([1, 1, 1, 1])];
            tensor<int32, [2]> input_339_strides_0 = const()[name = tensor<string, []>("input_339_strides_0"), val = tensor<int32, [2]>([1, 1])];
            tensor<int32, [2]> input_339_dilations_0 = const()[name = tensor<string, []>("input_339_dilations_0"), val = tensor<int32, [2]>([1, 1])];
            tensor<int32, []> input_339_groups_0 = const()[name = tensor<string, []>("input_339_groups_0"), val = tensor<int32, []>(1)];
            tensor<fp16, [32, 32, 3, 3]> model_depth_head_scratch_output_conv2_0_weight_to_fp16 = const()[name = tensor<string, []>("model_depth_head_scratch_output_conv2_0_weight_to_fp16"), val = tensor<fp16, [32, 32, 3, 3]>(BLOBFILE(path = tensor<string, []>("@model_path/weights/weight.bin"), offset = tensor<uint64, []>(49417216)))];
            tensor<fp16, [32]> model_depth_head_scratch_output_conv2_0_bias_to_fp16 = const()[name = tensor<string, []>("model_depth_head_scratch_output_conv2_0_bias_to_fp16"), val = tensor<fp16, [32]>(BLOBFILE(path = tensor<string, []>("@model_path/weights/weight.bin"), offset = tensor<uint64, []>(49435712)))];
            tensor<fp16, [1, 32, 392, 518]> input_339_cast_fp16 = conv(bias = model_depth_head_scratch_output_conv2_0_bias_to_fp16, dilations = input_339_dilations_0, groups = input_339_groups_0, pad = input_339_pad_0, pad_type = input_339_pad_type_0, strides = input_339_strides_0, weight = model_depth_head_scratch_output_conv2_0_weight_to_fp16, x = input_337_cast_fp16)[name = tensor<string, []>("input_339_cast_fp16")];
            tensor<fp16, [1, 32, 392, 518]> input_341_cast_fp16 = relu(x = input_339_cast_fp16)[name = tensor<string, []>("input_341_cast_fp16")];
            tensor<string, []> input_343_pad_type_0 = const()[name = tensor<string, []>("input_343_pad_type_0"), val = tensor<string, []>("valid")];
            tensor<int32, [2]> input_343_strides_0 = const()[name = tensor<string, []>("input_343_strides_0"), val = tensor<int32, [2]>([1, 1])];
            tensor<int32, [4]> input_343_pad_0 = const()[name = tensor<string, []>("input_343_pad_0"), val = tensor<int32, [4]>([0, 0, 0, 0])];
            tensor<int32, [2]> input_343_dilations_0 = const()[name = tensor<string, []>("input_343_dilations_0"), val = tensor<int32, [2]>([1, 1])];
            tensor<int32, []> input_343_groups_0 = const()[name = tensor<string, []>("input_343_groups_0"), val = tensor<int32, []>(1)];
            tensor<fp16, [1, 32, 1, 1]> model_depth_head_scratch_output_conv2_2_weight_to_fp16 = const()[name = tensor<string, []>("model_depth_head_scratch_output_conv2_2_weight_to_fp16"), val = tensor<fp16, [1, 32, 1, 1]>(BLOBFILE(path = tensor<string, []>("@model_path/weights/weight.bin"), offset = tensor<uint64, []>(49435840)))];
            tensor<fp16, [1]> model_depth_head_scratch_output_conv2_2_bias_to_fp16 = const()[name = tensor<string, []>("model_depth_head_scratch_output_conv2_2_bias_to_fp16"), val = tensor<fp16, [1]>([0x1.6b4p-4])];
            tensor<fp16, [1, 1, 392, 518]> input_343_cast_fp16 = conv(bias = model_depth_head_scratch_output_conv2_2_bias_to_fp16, dilations = input_343_dilations_0, groups = input_343_groups_0, pad = input_343_pad_0, pad_type = input_343_pad_type_0, strides = input_343_strides_0, weight = model_depth_head_scratch_output_conv2_2_weight_to_fp16, x = input_341_cast_fp16)[name = tensor<string, []>("input_343_cast_fp16")];
            tensor<fp16, [1, 1, 392, 518]> input_cast_fp16 = relu(x = input_343_cast_fp16)[name = tensor<string, []>("input_cast_fp16")];
            tensor<int32, [1]> output_1_axes_0 = const()[name = tensor<string, []>("output_1_axes_0"), val = tensor<int32, [1]>([1])];
            tensor<fp16, [1, 392, 518]> output_1_cast_fp16 = squeeze(axes = output_1_axes_0, x = input_cast_fp16)[name = tensor<string, []>("output_1_cast_fp16")];
            tensor<bool, []> var_1254_keep_dims_0 = const()[name = tensor<string, []>("op_1254_keep_dims_0"), val = tensor<bool, []>(false)];
            tensor<fp16, []> var_1254_cast_fp16 = reduce_min(keep_dims = var_1254_keep_dims_0, x = output_1_cast_fp16)[name = tensor<string, []>("op_1254_cast_fp16")];
            tensor<fp16, [1, 392, 518]> var_1256_cast_fp16 = sub(x = output_1_cast_fp16, y = var_1254_cast_fp16)[name = tensor<string, []>("op_1256_cast_fp16")];
            tensor<bool, []> var_1257_keep_dims_0 = const()[name = tensor<string, []>("op_1257_keep_dims_0"), val = tensor<bool, []>(false)];
            tensor<fp16, []> var_1257_cast_fp16 = reduce_max(keep_dims = var_1257_keep_dims_0, x = output_1_cast_fp16)[name = tensor<string, []>("op_1257_cast_fp16")];
            tensor<fp16, []> var_1260_cast_fp16 = sub(x = var_1257_cast_fp16, y = var_1254_cast_fp16)[name = tensor<string, []>("op_1260_cast_fp16")];
            tensor<fp16, [1, 392, 518]> output_3_cast_fp16 = real_div(x = var_1256_cast_fp16, y = var_1260_cast_fp16)[name = tensor<string, []>("output_3_cast_fp16")];
            tensor<int32, [1]> output_5_axes_0 = const()[name = tensor<string, []>("output_5_axes_0"), val = tensor<int32, [1]>([0])];
            tensor<fp16, [1, 1, 392, 518]> output_5_cast_fp16 = expand_dims(axes = output_5_axes_0, x = output_3_cast_fp16)[name = tensor<string, []>("output_5_cast_fp16")];
            tensor<int32, [4]> var_1268 = const()[name = tensor<string, []>("op_1268"), val = tensor<int32, [4]>([1, 3, 1, 1])];
            tensor<fp16, [1, 3, 392, 518]> output_cast_fp16 = tile(reps = var_1268, x = output_5_cast_fp16)[name = tensor<string, []>("output_cast_fp16")];
            tensor<fp16, []> var_1270_to_fp16 = const()[name = tensor<string, []>("op_1270_to_fp16"), val = tensor<fp16, []>(0x1.fep+7)];
            tensor<fp16, [1, 3, 392, 518]> var_1271_cast_fp16 = mul(x = output_cast_fp16, y = var_1270_to_fp16)[name = tensor<string, []>("op_1271_cast_fp16")];
            tensor<string, []> var_1271_cast_fp16_to_fp32_dtype_0 = const()[name = tensor<string, []>("op_1271_cast_fp16_to_fp32_dtype_0"), val = tensor<string, []>("fp32")];
            tensor<fp32, [1, 3, 392, 518]> depthOutput = cast(dtype = var_1271_cast_fp16_to_fp32_dtype_0, x = var_1271_cast_fp16)[name = tensor<string, []>("cast_36")];
        } -> (depthOutput);
}